models/test_model_2.pth (torch_old, 39936 bytes, 35 tensors)

en.conv1.0.weight f4 [3]
1.0 1.0 1.0
00000000: 0000 803f 0000 803f 0000 803f

en.conv1.0.bias f4 [3]
0.0 0.0 0.0
00000000: 0000 0000 0000 0000 0000 0000

en.conv1.0.running_mean f4 [3]
0.0 0.0 0.0
00000000: 0000 0000 0000 0000 0000 0000

en.conv1.0.running_var f4 [3]
1.0 1.0 1.0
00000000: 0000 803f 0000 803f 0000 803f

en.conv1.1.weight f4 [16, 3, 3, 3]
-0.038287193 -0.111565426 -0.044992223 -0.1497319 0.18352316 -0.09171578 -0.18897888 -0.09416147
-0.14177588 -0.103787936 -0.1691071 0.018033251 -0.18627524 0.085123524 -0.13115636 -0.04032193
-0.018763512 -0.051307514 -0.07125703 0.02883339 -0.015434787 0.12820779 0.1764042 0.1470082
-0.019094244 -0.055773288 -0.12936017 0.16428964 0.0941665 -0.009796113 0.09046157 -0.1546416
-0.075818926 -0.09140235 0.0670142 -0.09779099 -0.047563314 -0.17087391 0.020367414 -0.08742582
0.074705735 0.18410493 -0.060931116 -0.15591118 0.15802096 -0.05153224 0.07901524 0.11029969
-0.16907763 0.10660167 -0.15509602 -0.06481984 -0.062145725 0.16789804 0.16024546 0.017818466
-0.033112437 0.18293007 0.0623423 -0.18658982 -0.045761794 -0.15228584 -0.057070628 -0.06571719
-0.18269941 0.033294782 -0.14789876 0.14530335 0.13594328 0.02061832 -0.12759638 0.11403464
-0.058191463 0.12478067 -0.0224583 0.044655904 -0.05649379 0.052388012 0.09997405 -0.12224992
-0.17381214 0.0445185 0.14614387 -0.030457854 0.12796922 0.019837275 0.15760346 -0.14283577
-0.016740426 0.028937593 0.046213552 -0.18037844 0.1712354 0.18111567 -0.02693002 -0.15886125
0.07794188 -0.12220284 0.09126969 -0.14836723 -0.104639195 -0.14302447 0.03002651 0.038145304
0.07004233 -0.07683692 -0.07278193 0.09934579 -0.11417132 -0.012873352 0.15806131 0.15570287
-0.11930256 -0.06902566 -0.04828757 -0.08512863 0.08378278 -0.16699137 0.066997334 0.08167474
0.16310649 -0.17894082 0.119512126 0.049510732 0.10326831 -0.015309393 0.16255505 -0.04903555
0.1872359 0.09898229 0.10738157 0.0052237213 0.12029396 0.05089745 0.12517397 0.11869912
-0.04812117 0.13769276 0.091164544 0.15643658 0.05207403 -0.0696759 0.09420769 0.07782762
-0.079019375 0.1479251 -0.0280779 -0.09253992 0.07491396 0.17939933 0.031562373 -0.13599479
-0.12067444 0.10918002 -0.17348038 -0.014506221 -0.12574947 -0.050484255 0.020290747 0.08054371
-0.15879777 -0.05093494 0.090088084 -0.026771903 0.08261274 0.09140588 -0.18595049 -0.17858987
0.06288831 -0.0022559166 0.18471776 0.016039148 0.15616162 0.007161841 -0.09007429 -0.10075441
-0.09449794 0.12426098 0.093998894 -0.051743627 -0.04474877 -0.10736049 -0.15782526 0.010054976
0.06856035 -0.008341357 -0.13087817 0.14093359 0.056500673 0.13260986 0.098949835 -0.14647834
0.17094965 -0.16556054 -0.026404262 0.14815281 0.016207099 -0.1551174 0.113219604 0.013713628
-0.016753182 -0.10569007 0.10683139 -0.18175472 0.0020515919 -0.15801926 -0.1881743 0.17928813
-0.0718404 -0.18953748 0.08470096 -0.032507673 0.112162754 0.16867639 0.1394564 0.06157966
0.19133298 0.11672385 0.17425413 -0.05114162 0.02412656 -0.15833627 -0.17235506 -0.18055701
0.0376897 0.16967548 -0.022915885 0.08576013 0.0482852 0.111249134 -0.031262368 0.10088475
0.04477492 -4.2691827e-05 -0.1600851 0.029452294 0.06488721 0.16565956 0.0714225 0.005103484
0.08333333 -0.020108432 -0.1898313 0.12796481 0.05883147 0.029074863 -0.11647007 -0.15535091
-0.04698266 0.1403984 0.027874261 -0.17096758 0.018367022 -0.01885514 0.061405584 -0.12368498
00000000: 08d3 1cbd 6a7c e4bd c449 38bd 5253 19be
00000010: 7fed 3b3e 7cd5 bbbd ae83 41be bbd7 c0bd
00000020: b22d 11be c58e d4bd 692a 2dbe 78ba 933c
00000030: f0be 3ebe 3e55 ae3d da4d 06be 9c28 25bd
00000040: f0b5 99bc d427 52bd 35ef 91bd 0034 ec3c
00000050: 30e2 7cbc e748 033e 4da3 343e 5189 163e
00000060: 886b 9cbc 8872 64bd fe76 04be 8b3b 283e
00000070: 5eda c03d e07f 20bc ea43 b93d 5e5a 1ebe
00000080: f446 9bbd 2831 bbbd be3e 893d a446 c8bd
00000090: c0d1 42bd 92f9 2ebe 90d9 a63c 4f0c b3bd
000000a0: 52ff 983d 0186 3c3e e892 79bd 2ea7 1fbe
000000b0: 3fd0 213e 7813 53bd bed2 a13d cee4 e13d
000000c0: b022 2dbe fa51 da3d 7ed1 1ebe 44c0 84bd
000000d0: 848c 7ebd 77ed 2b3e 6317 243e 08f8 913c
000000e0: e8a0 07bd 0552 3b3e a45a 7f3d 6711 3fbe
000000f0: b870 3bbd d2f0 1bbe e4c2 69bd bc96 86bd
00000100: 8e15 3bbe 1c60 083d c672 17be 67ca 143e
00000110: b734 0b3e c0e7 a83c a0a8 02be fe8a e93d
00000120: 2c5a 6ebd 028d ff3d 78fa b7bc 1ce9 363d
00000130: 0866 67bd d094 563d 32bf cc3d 2b5e fabd
00000140: cffb 31be 0859 363d bda6 153e c082 f9bc
00000150: 5d0a 033e c881 a23c cd62 213e 8a43 12be
00000160: 3823 89bc 880e ed3c 6c4a 3d3d 20b5 38be
00000170: 5558 2f3e 6376 393e 589c dcbc 86ac 22be
00000180: fe9f 9f3d 7c45 fabd 9aeb ba3d 94ed 17be
00000190: 134d d6bd 0275 12be 28fa f53c 403e 1c3d
000001a0: 5a72 8f3d ad5c 9dbd b10e 95bd ce75 cb3d
000001b0: a7d2 e9bd c0ea 52bc d3da 213e 9370 1f3e
000001c0: e754 f4bd 535d 8dbd 30c9 45bd eb57 aebd
000001d0: 4e96 ab3d c9ff 2abe e635 893d 1645 a73d
000001e0: 6305 273e 433c 37be c6c2 f43d c4cb 4a3d
000001f0: 567e d33d 40d4 7abc d574 263e 80d9 48bd
00000200: c5ba 3f3e 3ab7 ca3d deea db3d c02b ab3b
00000210: ae5c f63d d879 503d 9b2d 003e 8618 f33d
00000220: b41a 45bd 55ff 0c3e 7ab4 ba3d e930 203e
00000230: 944b 553d 3db2 8ebd f6ef c03d 1664 9f3d
00000240: e9d4 a1bd ad79 173e a003 e6bc 9285 bdbd
00000250: 7e6c 993d 75b4 373e 8c47 013d 3842 0bbe
00000260: 2924 f7bd c699 df3d d7a4 31be 80ab 6dbc
00000270: 78c4 00be 94c8 4ebd c838 a63c 1af4 a43d
00000280: e29b 22be 28a1 50bd 1a80 b83d c050 dbbc
00000290: de30 a93d 0233 bb3d ce69 3ebe 43e0 36be
000002a0: 96cb 803d 00d8 13bb a726 3d3e 8864 833c
000002b0: d5e8 1f3e e0ad ea3b df78 b8bd 5458 cebd
000002c0: 2388 c1bd 8a7c fe3d 7e82 c03d 20f1 53bd
000002d0: 7c4a 37bd d1df dbbd f29c 21be a0bd 243c
000002e0: 5e69 8c3d 30aa 08bc ed04 06be e550 103e
000002f0: 406d 673d e1ca 073e 36a6 ca3d 6bfe 15be
00000300: 6d0d 2f3e b488 29be c04d d8bc 5fb5 173e
00000310: c0c4 843c 19d7 1ebe aedf e73d 20af 603c
00000320: f83d 89bc 0974 d8bd 6aca da3d e91d 3abe
00000330: 0074 063b cdcf 21be c4b0 40be 4f97 373e
00000340: 0f21 93bd 1d16 42be b277 ad3d c426 05bd
00000350: 96b5 e53d 81b9 2c3e a9cd 0e3e f43a 7c3d
00000360: cbec 433e ea0c ef3d ad6f 323e e079 51bd
00000370: 10a5 c53c e722 22be d87d 30be f0e3 38be
00000380: 8460 1a3d 69bf 2d3e 18ba bbbc 02a3 af3d
00000390: b4c6 453d 96d6 e33d f80c 00bd aa9c ce3d
000003a0: e865 373d 0010 33b8 59ed 23be f045 f13c
000003b0: 96e3 843d a9a2 293e f645 923d 203b a73b
000003c0: aaaa aa3d 70ba a4bc 2363 42be 3509 033e
000003d0: 44f9 703d 682e ee3c dc87 eebd 4f14 1fbe
000003e0: e470 40bd 99c4 0f3e 9058 e43c 2012 2fbe
000003f0: 7076 963c 1876 9abc 6c84 7b3d 8d4e fdbd

en.conv1.1.bias f4 [16]
0.0067338645 0.18350212 -0.031634822 -0.07130757 0.033255324 -0.17803305 -0.1360294 0.11368729
0.045853227 0.11846645 -0.10563788 0.18545713 -0.0783055 0.04641889 -0.11137969 0.044340312
00000000: c0a7 dc3b fbe7 3b3e 8493 01bd b409 92bd
00000010: bc36 083d 4c4e 36be 4b4b 0bbe e2d4 e83d
00000020: 98d0 3b3d 8a9e f23d ac58 d8bd 79e8 3d3e
00000030: a25e a0bd bc21 3e3d 091b e4bd 309e 353d

en.conv2.0.weight f4 [16]
1.0 1.0 1.0 1.0 1.0 1.0 1.0 1.0
1.0 1.0 1.0 1.0 1.0 1.0 1.0 1.0
00000000: 0000 803f 0000 803f 0000 803f 0000 803f
00000010: 0000 803f 0000 803f 0000 803f 0000 803f
00000020: 0000 803f 0000 803f 0000 803f 0000 803f
00000030: 0000 803f 0000 803f 0000 803f 0000 803f

en.conv2.0.bias f4 [16]
0.0 0.0 0.0 0.0 0.0 0.0 0.0 0.0
0.0 0.0 0.0 0.0 0.0 0.0 0.0 0.0
00000000: 0000 0000 0000 0000 0000 0000 0000 0000
00000010: 0000 0000 0000 0000 0000 0000 0000 0000
00000020: 0000 0000 0000 0000 0000 0000 0000 0000
00000030: 0000 0000 0000 0000 0000 0000 0000 0000

en.conv2.0.running_mean f4 [16]
0.0 0.0 0.0 0.0 0.0 0.0 0.0 0.0
0.0 0.0 0.0 0.0 0.0 0.0 0.0 0.0
00000000: 0000 0000 0000 0000 0000 0000 0000 0000
00000010: 0000 0000 0000 0000 0000 0000 0000 0000
00000020: 0000 0000 0000 0000 0000 0000 0000 0000
00000030: 0000 0000 0000 0000 0000 0000 0000 0000

en.conv2.0.running_var f4 [16]
1.0 1.0 1.0 1.0 1.0 1.0 1.0 1.0
1.0 1.0 1.0 1.0 1.0 1.0 1.0 1.0
00000000: 0000 803f 0000 803f 0000 803f 0000 803f
00000010: 0000 803f 0000 803f 0000 803f 0000 803f
00000020: 0000 803f 0000 803f 0000 803f 0000 803f
00000030: 0000 803f 0000 803f 0000 803f 0000 803f

en.conv2.1.weight f4 [32, 16, 3, 3]
-0.0817008 -0.065231755 0.063952304 -0.05490906 -0.043964457 -0.058994234 -0.0048376247 -0.030296206
-0.02688098 -0.044736475 0.029241584 -0.0030666366 -0.036901712 -0.06209476 -0.030025981 0.0654173
-0.035951138 -0.06252913 -0.042399865 0.012635611 0.05573947 0.054347552 0.035707057 -0.07908413
-0.014238387 0.037502237 0.076996334 -0.07100229 -0.066122435 -0.016822614 -0.080157936 0.03523814
-0.08202128 -0.07113557 -0.019074596 -0.017193668 -0.082624845 0.067330845 0.02706673 0.06371755
0.079994835 0.019841313 -0.054747164 0.067039736 0.05901485 -0.008009516 0.069586314 0.0046700835
-0.028082162 -0.0663483 -0.080773234 0.037940614 -0.08265342 0.07902891 0.028570019 0.020013519
-0.076417446 0.055178277 0.032915384 0.029181719 -0.05736205 -0.0074177384 -0.032471947 -0.023499023
0.0446563 -0.0007091686 -0.08048795 -0.032070857 -0.053316902 0.018896319 -0.04584862 -0.07164942
-0.017679721 0.077583484 0.03752943 -0.048452877 -0.03003639 -0.029562384 0.04093092 -0.047776848
0.04483647 0.038735628 -0.049529325 -0.046679698 0.035008855 -0.024160445 0.07040053 -0.0635799
0.005325161 -0.04308343 -0.073439136 0.05661828 -0.053265683 0.022201873 0.055984817 0.0035500005
0.037078865 -0.051614337 0.072373725 0.016965784 -0.0068945587 0.05647642 -0.043565236 -0.0017568171
0.067975275 0.03766314 0.011763699 0.07120962 0.0029558018 -0.025748026 0.062173657 -0.041260134
-0.03211432 0.061317764 0.064272024 0.027021997 0.030922502 0.034351684 -0.014270663 -0.06742443
0.004447527 -0.0027323365 -0.07755738 0.026715122 0.04585562 0.041343577 0.030404784 0.080390446
-0.04837179 -0.03792259 0.01647345 -0.019417346 0.07778583 -0.017643891 0.073141344 0.048303686
-0.062134832 0.04281939 -0.028804027 0.046499275 0.010571472 0.04046049 -0.0827063 0.05828517
0.024917543 0.0723627 0.046997182 0.0804188 -0.050586354 -0.023308735 -0.006038524 -0.018387668
0.05432161 -0.05916193 -0.05506193 0.01409062 0.031282425 -0.03980887 -0.031003844 0.005394757
0.016342081 0.06782476 0.04338693 0.07098181 0.012712039 -0.07226448 -0.057200532 0.04465828
-0.01576817 0.07736591 -0.045736074 -0.044022076 -0.073102586 -0.02286335 0.06971132 0.021313868
-0.039811235 0.029700316 -0.052398335 0.035721205 0.06948394 -0.071908206 -0.06887351 -0.05046348
-0.06535442 0.02606646 0.021010697 -0.067732535 0.00889796 0.008671641 -0.019168764 -0.082231715
0.0027803779 -0.06710948 -0.038884908 -0.07677912 0.06708155 -0.06453532 0.021008827 0.0817365
-0.05793486 -0.044730216 0.031467497 -0.050672006 -0.0011981055 -0.08117794 -0.0686976 0.043489315
-0.0790512 0.072596125 0.08191048 -0.02633223 -0.07371527 -0.038789272 -0.036336415 -0.067154855
-0.007283747 0.0032116845 0.03646347 0.068702005 0.0090378225 -0.04914851 0.061685495 0.061172105
-0.042220127 0.009226114 -0.078013465 0.08283775 0.060863353 -0.036086373 -0.04586656 0.015358575
-0.07653113 -0.051246196 0.043843992 -0.0013155267 0.008529305 0.020393543 -0.05419621 -0.031178623
-0.013105445 -0.047316812 0.014426798 -0.03949233 0.014760077 0.03465692 0.009156257 0.06668108
0.006013103 0.014620721 0.066021375 -0.06145393 -0.064717025 -0.045603197 0.023934156 -0.0016007125
00000000: c052 a7bd 3a98 85bd 6df9 823d 53e8 60bd
00000010: 1314 34bd f0a3 71bd f084 9ebb c02f f8bc
00000020: 8035 dcbc 983d 37bd 0c8c ef3c a0f9 48bb
00000030: 4026 17bd 1357 7ebd 0cf9 f5bc 81f9 853d
00000040: 8041 13bd 460f 80bd 7bab 2dbd 9805 4f3c
00000050: 124f 643d 8a9b 5e3d 9041 123d dcf6 a1bd
00000060: 2048 69bc f29b 193d 41b0 9d3d a669 91bd
00000070: 336b 87bd 94cf 89bc d829 a4bd de55 103d
00000080: c6fa a7bd 87af 91bd 5442 9cbc bcd9 8cbc
00000090: 3737 a9bd c1e4 893d 0cbb dd3c 597e 823d
000000a0: 55d4 a33d 408a a23c 903e 60bd 214c 893d
000000b0: 8eb9 713d 583a 03bc 4583 8e3d 8007 993b
000000c0: 900c e6bc 9ee1 87bd 706c a5bd 9e67 1b3d
000000d0: 3246 a9bd e9d9 a13d ac0b ea3c 64f3 a33c
000000e0: c080 9cbd 9e02 623d 48d2 063d 800e ef3c
000000f0: 78f4 6abd 8010 f3bb 4e01 05bd 0681 c0bc
00000100: 86e9 363d 80e7 39ba ded6 a4bd bb5c 03bd
00000110: d362 5abd 74cc 9a3c c3cb 3bbd eebc 92bd
00000120: 10d5 90bc 17e4 9e3d 76b8 193d 8676 46bd
00000130: e00e f6bc d02c f2bc 2ea7 273d a8b1 43bd
00000140: 72a6 373d 40a9 1e3d 43df 4abd 3633 3fbd
00000150: 7265 0f3d 20ec c5bc 272e 903d 2e36 82bd
00000160: b07e ae3b 4078 30bd 4267 96bd 92e8 673d
00000170: 1e2d 5abd b4e0 b53c 5650 653d 20a7 683b
00000180: 02e0 173d 8e69 53bd ad38 943d d4fb 8a3c
00000190: c0eb e1bb d253 673d 7671 32bd 0045 e6ba
000001a0: 9f36 8b3d aa44 1a3d 88bc 403c 59d6 913d
000001b0: 20b6 413b 86ed d2bc cea9 7e3d 6300 29bd
000001c0: 4e8a 03bd 5628 7b3d 0da1 833d 3c5d dd3c
000001d0: 3051 fd3c 5ab4 0c3d 80cf 69bc d215 8abd
000001e0: 90bc 913b 0011 33bb 67d6 9ebd acd9 da3c
000001f0: 1ad3 3b3d e257 293d 7413 f93c bfa3 a43d
00000200: 8021 46bd b854 1bbd 54f3 863c 2011 9fbc
00000210: 2d4e 9f3d ec89 90bc 21cb 953d 16da 453d
00000220: 1881 7ebd 6263 2f3d 6cf6 ebbc 0676 3e3d
00000230: f833 2d3c e6b9 253d ec61 a9bd 6ebc 6e3d
00000240: e01f cc3c e532 943d 1e80 403d 9db2 a43d
00000250: a333 4fbd f6f1 bebc d0de c5bb bca1 96bc
00000260: 5680 5e3d c853 72bd 9e88 61bd 58dc 663c
00000270: 0022 003d a00e 23bd c6fb fdbc 80c6 b03b
00000280: d4df 853c b5e7 8a3d 7eb6 313d e95e 913d
00000290: 2846 503c 66ff 93bd 1b4b 6abd 9aeb 363d
000002a0: 402c 81bc 0572 9e3d c055 3bbd 7e50 34bd
000002b0: cfb6 95bd ec4b bbbc cfc4 8e3d 6c9a ae3c
000002c0: 1b11 23bd 144e f33c a39f 56bd 6650 123d
000002d0: 994d 8e3d 9c44 93bd 8e0d 8dbd cbb2 4ebd
000002e0: 8ad8 85bd 5489 d53c a01e ac3c 5bb7 8abd
000002f0: c0c8 113c 8013 0e3c d007 9dbc 1a69 a8bd
00000300: 0037 363b b270 89bd c845 1fbd 5f3e 9dbd
00000310: 0d62 893d 182b 84bd b41a ac3c 7765 a73d
00000320: 1b4d 6dbd 0837 37bd 10e4 003d 738d 4fbd
00000330: c009 9dba 9f40 a6bd 54b1 8cbd da21 323d
00000340: 98e5 a1bd 47ad 943d afc0 a73d b0b6 d7bc
00000350: 08f8 96bd 80e1 1ebd 7ed5 14bd 7c88 89bd
00000360: 80ac eebb 207b 523b b85a 153d a3b3 8c3d
00000370: 6013 143c f34f 49bd eea9 7c3d 9a8f 7a3d
00000380: 03ef 2cbd 2029 173c 86c5 9fbd d7a6 a93d
00000390: da4b 793d 4ecf 13bd 93de 3bbd 88a2 7b3c
000003a0: 5abc 9cbd 88e7 51bd c295 333d c06d acba
000003b0: 80be 0b3c 5c10 a73c d8fc 5dbd 506a ffbc
000003c0: 38b8 56bc 46cf 41bd 605e 6c3c b6c2 21bd
000003d0: 40d4 713c 6af4 0d3d 2004 163c 1790 883d
000003e0: 9009 c53b c08b 6f3c 3736 873d 1eb7 7bbd
000003f0: 5c8a 84bd 6bca 3abd 9011 c43c 00cf d1ba

en.conv2.1.bias f4 [32]
0.025429644 -0.040235303 -0.06723454 -0.01949393 0.029184423 -0.04977718 0.0780218 -0.031772077
0.008302063 -0.024131667 0.035474487 0.05764196 -0.044676386 -0.032784663 0.006484002 -0.081101954
0.016777933 0.049245156 0.062253095 0.075654514 0.014073998 -0.020567127 -0.01661691 0.012407295
-0.07655608 0.016946763 -0.06797537 0.07455481 -0.05183056 0.038005 0.051092453 -0.022536963
00000000: d451 d03c c6cd 24bd 43b2 89bd bcb1 9fbc
00000010: 2c14 ef3c 28e3 4bbd e5c9 9f3d 7023 02bd
00000020: 6005 083c c6af c5bc b24d 113d fa19 6c3d
00000030: 96fe 36bd 3649 06bd c077 d43b c818 a6bd
00000040: e071 893c 4ab5 493d 1afd 7e3d c1f0 9a3d
00000050: a096 663c 647c a8bc 3020 88bc f847 4b3c
00000060: 6fc9 9cbd f0d3 8a3c ac36 8bbd 31b0 983d
00000070: 484c 54bd 22ab 1b3d 5246 513d 709f b8bc

en.conv3.0.weight f4 [32]
1.0 1.0 1.0 1.0 1.0 1.0 1.0 1.0
1.0 1.0 1.0 1.0 1.0 1.0 1.0 1.0
1.0 1.0 1.0 1.0 1.0 1.0 1.0 1.0
1.0 1.0 1.0 1.0 1.0 1.0 1.0 1.0
00000000: 0000 803f 0000 803f 0000 803f 0000 803f
00000010: 0000 803f 0000 803f 0000 803f 0000 803f
00000020: 0000 803f 0000 803f 0000 803f 0000 803f
00000030: 0000 803f 0000 803f 0000 803f 0000 803f
00000040: 0000 803f 0000 803f 0000 803f 0000 803f
00000050: 0000 803f 0000 803f 0000 803f 0000 803f
00000060: 0000 803f 0000 803f 0000 803f 0000 803f
00000070: 0000 803f 0000 803f 0000 803f 0000 803f

en.conv3.0.bias f4 [32]
0.0 0.0 0.0 0.0 0.0 0.0 0.0 0.0
0.0 0.0 0.0 0.0 0.0 0.0 0.0 0.0
0.0 0.0 0.0 0.0 0.0 0.0 0.0 0.0
0.0 0.0 0.0 0.0 0.0 0.0 0.0 0.0
00000000: 0000 0000 0000 0000 0000 0000 0000 0000
00000010: 0000 0000 0000 0000 0000 0000 0000 0000
00000020: 0000 0000 0000 0000 0000 0000 0000 0000
00000030: 0000 0000 0000 0000 0000 0000 0000 0000
00000040: 0000 0000 0000 0000 0000 0000 0000 0000
00000050: 0000 0000 0000 0000 0000 0000 0000 0000
00000060: 0000 0000 0000 0000 0000 0000 0000 0000
00000070: 0000 0000 0000 0000 0000 0000 0000 0000

en.conv3.0.running_mean f4 [32]
0.0 0.0 0.0 0.0 0.0 0.0 0.0 0.0
0.0 0.0 0.0 0.0 0.0 0.0 0.0 0.0
0.0 0.0 0.0 0.0 0.0 0.0 0.0 0.0
0.0 0.0 0.0 0.0 0.0 0.0 0.0 0.0
00000000: 0000 0000 0000 0000 0000 0000 0000 0000
00000010: 0000 0000 0000 0000 0000 0000 0000 0000
00000020: 0000 0000 0000 0000 0000 0000 0000 0000
00000030: 0000 0000 0000 0000 0000 0000 0000 0000
00000040: 0000 0000 0000 0000 0000 0000 0000 0000
00000050: 0000 0000 0000 0000 0000 0000 0000 0000
00000060: 0000 0000 0000 0000 0000 0000 0000 0000
00000070: 0000 0000 0000 0000 0000 0000 0000 0000

en.conv3.0.running_var f4 [32]
1.0 1.0 1.0 1.0 1.0 1.0 1.0 1.0
1.0 1.0 1.0 1.0 1.0 1.0 1.0 1.0
1.0 1.0 1.0 1.0 1.0 1.0 1.0 1.0
1.0 1.0 1.0 1.0 1.0 1.0 1.0 1.0
00000000: 0000 803f 0000 803f 0000 803f 0000 803f
00000010: 0000 803f 0000 803f 0000 803f 0000 803f
00000020: 0000 803f 0000 803f 0000 803f 0000 803f
00000030: 0000 803f 0000 803f 0000 803f 0000 803f
00000040: 0000 803f 0000 803f 0000 803f 0000 803f
00000050: 0000 803f 0000 803f 0000 803f 0000 803f
00000060: 0000 803f 0000 803f 0000 803f 0000 803f
00000070: 0000 803f 0000 803f 0000 803f 0000 803f

en.conv3.1.weight f4 [32, 32, 1, 1]
-0.17624818 -0.0855789 0.08455901 -0.08857681 0.11109798 -0.045850277 0.13558598 -0.038637623
0.17179023 0.08893983 -0.14976695 0.14955007 0.13646398 -0.11760479 -0.13142417 0.0065760612
0.045213833 0.06406115 0.015455395 0.15850656 0.0030303001 -0.101126455 -0.05165176 -0.087147266
-0.053398035 0.17290916 0.16678838 -0.040927097 -0.09541144 0.11021145 -0.03434722 -0.012747467
0.07943173 -0.064085044 -0.11945626 -0.120223716 -0.09987646 0.16798975 0.10856815 -0.17595643
0.086618796 0.04964918 -0.09705692 -0.13202018 0.14451174 0.116791055 0.117128 -0.14796901
-0.11098807 0.15238659 -0.17376547 -0.11422325 0.132293 0.12216081 -0.10354077 -0.01872313
0.009219974 -0.109956786 -0.16310643 0.016346902 -0.171263 -0.13960987 0.15534298 -0.11836609
0.11925377 0.0679791 -0.07047092 -0.042164892 0.07758106 -0.105587065 -0.054653652 -0.02705869
-0.10919507 0.110047 -0.04790108 -0.110624686 0.04213734 -0.16726248 -0.14761227 -0.12121145
0.018359333 -0.059541464 0.16694884 -0.17462051 -0.09231892 0.12160106 0.10429628 -0.13359529
0.17517512 0.15256812 0.012368813 -0.13288978 0.06913851 0.08642541 0.03594829 -0.13571034
0.0022177696 -0.019527122 -0.047335267 0.01686795 0.16177817 0.035746783 -0.045725226 0.17308082
0.073583856 -0.17299195 -0.12769374 0.14817737 0.16750477 -0.14506894 -0.15461323 -0.17572568
-0.09303826 0.09618516 -0.086386606 0.051914185 0.018343404 0.14283793 0.13347484 0.09628843
-0.10992408 0.032778695 0.07849388 -0.06297776 0.10478763 0.070137054 0.11975105 -0.1731401
0.11347188 0.12913094 0.055333093 0.071762845 0.05301273 -0.091945246 -0.1496364 0.14679642
0.13629834 -0.17516276 -0.15932485 0.047307625 -0.038974345 0.16422711 -0.005061358 -0.080162585
-0.124963865 0.022215948 -0.03431812 -0.064780846 0.027431235 0.043248087 -0.11776584 -0.15756795
-0.023187324 -0.12911212 0.074643 0.09725751 -0.09427953 0.16670103 -0.10376465 0.04065065
-0.1032399 0.14129741 -0.094019584 0.046769172 -0.053562276 -0.08874411 -0.13190717 -0.045514926
-0.09300347 0.06362973 -0.17263949 0.16515563 -0.09253996 -0.057197087 0.030319184 -0.101676956
-0.17059883 0.020507544 -0.018172398 -0.099031985 -0.17620997 -0.15191533 0.12602876 -0.0073024333
0.07101305 0.08118875 0.07257475 -0.112284385 -0.063568026 -0.057500735 0.06366885 -0.15896209
0.05847329 -0.12169171 0.1000229 -0.13545793 -0.06268103 -0.11993514 -0.089926474 -0.08448643
-0.043373168 0.03419614 0.092364535 0.118609056 -0.02547121 0.06761809 -0.11192102 0.11651988
-0.10217947 0.081174925 -0.12570608 0.12944199 -0.05102828 -0.05342724 -0.0064747483 0.10267635
0.06263879 -0.10311235 0.0013909489 0.028660327 0.11142202 -0.017906949 -0.098879285 0.07115686
0.08131011 0.06277375 -0.1689233 -0.10033019 -0.114100136 -0.107555576 0.03673716 0.1076339
-0.062145717 -0.08661563 -0.039793983 -0.15585136 0.06620163 -0.13674906 -0.14914642 0.060466394
0.10500245 0.06527917 0.04503174 -0.17141578 -0.15210989 -0.1648352 0.09882526 -0.16663857
-0.009213492 0.03750816 -0.08786145 0.10305296 -0.11231317 -0.1134681 0.051282287 0.009060606
00000000: 677a 34be fe43 afbd 462d ad3d c267 b5bd
00000010: 5687 e33d 80cd 3bbd 0dd7 0a3e 7c42 1ebd
00000020: c7e9 2f3e 1626 b63d 825c 19be a723 193e
00000030: 37bd 0b3e c8da f0bd 0f94 06be 007c d73b
00000040: 2432 393d 7e32 833d a038 7d3c 8b4f 223e
00000050: 0098 463b 631b cfbd cc90 53bd 447a b2bd
00000060: e6b7 5abd 190f 313e 93ca 2a3e 2ca3 27bd
00000070: 1367 c3bd 8ab6 e13d acaf 0cbd c0da 50bc
00000080: 1aad a23d 053f 83bd 7ca5 f4bd da37 f6bd
00000090: 088c ccbd 8105 2c3e fa58 de3d ec2d 34be
000000a0: 3265 b13d f05c 4b3d c7c5 c6bd 4c30 07be
000000b0: e3fa 133e 2630 ef3d cee0 ef3d 3085 17be
000000c0: b74d e3bd 3b0b 1c3e 93ef 31be e1ed e9bd
000000d0: d177 073e 722f fa3d 2f0d d4bd 4061 99bc
000000e0: 600f 173c 0631 e1bd 5f05 27be f0e9 853c
000000f0: 915f 2fbe e4f5 0ebe 3b12 1f3e ec69 f2bd
00000100: 523b f43d a038 8b3d 0f53 90bd 18b5 2cbd
00000110: d2e2 9e3d 083e d8bd 82dc 5fbd 30aa ddbc
00000120: aaa1 dfbd 5260 e13d ec33 44bd 328f e2bd
00000130: 3498 2c3d db46 2bbe ac27 17be b53d f8bd
00000140: 5066 963c c0e1 73bd a3f4 2a3e b8cf 32be
00000150: b411 bdbd fa09 f93d 4a99 d53d 34cd 08be
00000160: 1b61 333e d13a 1c3e 90a6 4a3c 4214 08be
00000170: 7e98 8d3d ceff b03d 843e 133d a7f7 0abe
00000180: 0058 113b 58f7 9fbc a0e2 41bd a82e 8a3c
00000190: 2da9 253e 386b 123d 604a 3bbd 193c 313e
000001a0: 22b3 963d cd24 31be 26c2 02be cfbb 173e
000001b0: 5f86 2b3e f48c 14be ee52 1ebe 6ff1 33be
000001c0: d88a bebd bafc c43d 76eb b0bd f8a3 543d
000001d0: e844 963c 1b44 123e a1ad 083e de32 c53d
000001e0: e01f e1bd f442 063d 66c1 a03d 7cfa 80bd
000001f0: e69a d63d 04a4 8f3d 0a40 f53d a34b 31be
00000200: f263 e83d e73a 043e f4a4 623d 66f8 923d
00000210: e023 593d ca4d bcbd 493a 19be cd51 163e
00000220: cb91 0b3e de5d 33be 0e26 23be a4c5 413d
00000230: 90a3 1fbd 272b 283e c0d9 a5bb 482c a4bd
00000240: 0eed ffbd 38fe b53c 2891 0cbd d2ab 84bd
00000250: 78b7 e03c e824 313d 372f f1bd 7e59 21be
00000260: 58f3 bdbc f835 04be 6ede 983d f22e c73d
00000270: a015 c1bd adb3 2a3e 9082 d4bd 4c81 263d
00000280: 716f d3bd 45b0 103e 578d c0bd 0891 3f3d
00000290: 1e64 5bbd 79bf b5bd ac12 07be dc6d 3abd
000002a0: 9a78 bebd 4e50 823d 68c8 30be 8f1e 293e
000002b0: 9785 bdbd 7e47 6abd f05f f83c 023c d0bd
000002c0: 76b1 2ebe 70ff a73c 48de 94bc 48d1 cabd
000002d0: 6370 34be b18f 1bbe af0d 013e 4049 efbb
000002e0: 4a6f 913d 4a46 a63d 12a2 943d 5bf5 e5bd
000002f0: f42f 82bd e485 6bbd d064 823d f5c6 22be
00000300: b081 6f3d 8139 f9bd ced8 cc3d 7cb5 0abe
00000310: e95e 80bd 8ea0 f5bd 5f2b b8bd 3907 adbd
00000320: 10a8 31bd 4011 0c3d 9e29 bd3d 4ee9 f23d
00000330: 00a9 d0bc 5a7b 8a3d d936 e5bd faa1 ee3d
00000340: 7843 d1bd 0a3f a63d 18b9 00be 718c 043e
00000350: 0803 51bd 86d6 5abd 202a d4bb fa47 d23d
00000360: c448 803d 912c d3bd 8050 b63a 10c9 ea3c
00000370: 3a31 e43d 98b1 92bc 3981 cabd b0ba 913d
00000380: ea85 a63d 868f 803d 3bfa 2cbe ea79 cdbd
00000390: 55ad e9bd 1946 dcbd b479 163d 2a6f dc3d
000003a0: 828c 7ebd 8963 b1bd 04ff 22bd 8097 1fbe
000003b0: b894 873d f207 0cbe d7b9 18be 9cab 773d
000003c0: 860b d73d 16b1 853d 3473 383d 9e87 2fbe
000003d0: b2c2 1bbe 8fca 28be e664 ca3d 4da3 2abe
000003e0: 30f4 16bc 28a2 193d b4f0 b3bd 6e0d d33d
000003f0: 7304 e6bd f761 e8bd 600d 523d f072 143c

en.conv3.1.bias f4 [32]
0.14029963 0.08648218 -0.15662119 0.11985718 -0.12566009 0.17571096 -0.014855042 0.16334735
-0.12495683 0.099097684 -0.059191875 -0.09582925 0.10710578 -0.14147618 0.0047014207 0.027990222
-0.10229653 -0.00040131807 -0.1229846 -0.1612275 0.06212412 0.06964646 -0.043966368 -0.013363466
0.09319155 -0.05489026 -0.12527283 0.16444288 -0.030431747 -0.08048122 0.08397986 -0.08368728
00000000: b5aa 0f3e 921d b13d 4e61 20be ae77 f53d
00000010: 0aad 00be 93ed 333e 9062 73bc 8744 273e
00000020: 5ee9 ffbd baf3 ca3d 2e73 72bd 2042 c4bd
00000030: 465a db3d 22df 10be 600e 9a3b c04b e53c
00000040: d880 d1bd 0068 d2b9 5adf fbbd d218 25be
00000050: dc75 7e3d cea2 8e3d 1416 34bd 70f2 5abc
00000060: 36db be3d 9cd4 60bd 8547 00be b763 283e
00000070: 004c f9bc 56d3 a4bd a2fd ab3d 3d64 abbd

de.upsample1_bn.weight f4 [32]
1.0 1.0 1.0 1.0 1.0 1.0 1.0 1.0
1.0 1.0 1.0 1.0 1.0 1.0 1.0 1.0
1.0 1.0 1.0 1.0 1.0 1.0 1.0 1.0
1.0 1.0 1.0 1.0 1.0 1.0 1.0 1.0
00000000: 0000 803f 0000 803f 0000 803f 0000 803f
00000010: 0000 803f 0000 803f 0000 803f 0000 803f
00000020: 0000 803f 0000 803f 0000 803f 0000 803f
00000030: 0000 803f 0000 803f 0000 803f 0000 803f
00000040: 0000 803f 0000 803f 0000 803f 0000 803f
00000050: 0000 803f 0000 803f 0000 803f 0000 803f
00000060: 0000 803f 0000 803f 0000 803f 0000 803f
00000070: 0000 803f 0000 803f 0000 803f 0000 803f

de.upsample1_bn.bias f4 [32]
0.0 0.0 0.0 0.0 0.0 0.0 0.0 0.0
0.0 0.0 0.0 0.0 0.0 0.0 0.0 0.0
0.0 0.0 0.0 0.0 0.0 0.0 0.0 0.0
0.0 0.0 0.0 0.0 0.0 0.0 0.0 0.0
00000000: 0000 0000 0000 0000 0000 0000 0000 0000
00000010: 0000 0000 0000 0000 0000 0000 0000 0000
00000020: 0000 0000 0000 0000 0000 0000 0000 0000
00000030: 0000 0000 0000 0000 0000 0000 0000 0000
00000040: 0000 0000 0000 0000 0000 0000 0000 0000
00000050: 0000 0000 0000 0000 0000 0000 0000 0000
00000060: 0000 0000 0000 0000 0000 0000 0000 0000
00000070: 0000 0000 0000 0000 0000 0000 0000 0000

de.upsample1_bn.running_mean f4 [32]
0.0 0.0 0.0 0.0 0.0 0.0 0.0 0.0
0.0 0.0 0.0 0.0 0.0 0.0 0.0 0.0
0.0 0.0 0.0 0.0 0.0 0.0 0.0 0.0
0.0 0.0 0.0 0.0 0.0 0.0 0.0 0.0
00000000: 0000 0000 0000 0000 0000 0000 0000 0000
00000010: 0000 0000 0000 0000 0000 0000 0000 0000
00000020: 0000 0000 0000 0000 0000 0000 0000 0000
00000030: 0000 0000 0000 0000 0000 0000 0000 0000
00000040: 0000 0000 0000 0000 0000 0000 0000 0000
00000050: 0000 0000 0000 0000 0000 0000 0000 0000
00000060: 0000 0000 0000 0000 0000 0000 0000 0000
00000070: 0000 0000 0000 0000 0000 0000 0000 0000

de.upsample1_bn.running_var f4 [32]
1.0 1.0 1.0 1.0 1.0 1.0 1.0 1.0
1.0 1.0 1.0 1.0 1.0 1.0 1.0 1.0
1.0 1.0 1.0 1.0 1.0 1.0 1.0 1.0
1.0 1.0 1.0 1.0 1.0 1.0 1.0 1.0
00000000: 0000 803f 0000 803f 0000 803f 0000 803f
00000010: 0000 803f 0000 803f 0000 803f 0000 803f
00000020: 0000 803f 0000 803f 0000 803f 0000 803f
00000030: 0000 803f 0000 803f 0000 803f 0000 803f
00000040: 0000 803f 0000 803f 0000 803f 0000 803f
00000050: 0000 803f 0000 803f 0000 803f 0000 803f
00000060: 0000 803f 0000 803f 0000 803f 0000 803f
00000070: 0000 803f 0000 803f 0000 803f 0000 803f

de.upsample1_conv.weight f4 [32, 32, 1, 1]
0.13257734 0.090629354 -0.13889182 -0.0258663 0.08523895 -0.016153902 -0.1714169 -0.16254327
0.097993866 -0.17495565 -0.12428868 0.08077057 0.035856634 -0.09650138 -0.05195596 -0.12136985
0.15563755 -0.0485463 -0.057531543 -0.043362886 -0.074986935 0.10257007 -0.14032683 0.10616796
-0.015141398 -0.15829526 0.15656139 -0.057628646 -0.14368817 -0.1540676 -0.049722716 -0.05611992
0.028799891 0.11749034 -0.07385289 0.07461749 -0.07288912 0.055105776 0.04012555 -0.10997697
-0.1586291 0.001192376 0.021643668 0.062047496 0.14606752 -0.06960113 0.071658045 -0.12862548
0.16738944 -0.1747734 -0.14535257 0.0782976 -0.024761215 -0.104550675 -0.083709285 0.0983025
0.0106613785 0.07249108 0.08567907 -0.11417882 0.13575794 -0.10813113 0.1567129 0.08078702
-0.051769853 -0.12927073 0.06445515 0.15355097 0.15806524 0.15895475 0.113724515 -0.16823182
-0.005359292 0.13574477 -0.07560609 0.005324647 0.109917566 -0.12079774 -0.0056833327 0.09279759
0.14497142 0.026374966 0.08822672 -0.03687556 0.00064469874 0.11638813 0.020566612 0.11353217
0.04225354 0.1254666 0.06166832 -0.025852263 0.11426403 0.06619811 0.16778977 -0.141608
0.08788864 0.024272665 0.10007508 0.078770295 0.08860786 0.0446596 -0.16171232 -0.0038468242
-0.016241774 0.0784737 0.019584924 0.06725238 -0.1677622 -0.045228884 -0.10474729 -0.148868
-0.031642467 -0.0262914 0.08065529 -0.14441198 -0.095861614 -0.09568312 0.054675296 0.1603524
0.020561695 0.09860785 -0.10744399 0.10880147 0.030285507 -0.08332114 0.024556085 -0.102328144
-0.0737114 -0.042763248 -0.03517373 0.048752964 0.12610035 -0.12318297 -0.11680034 -0.1396409
-0.11334107 0.010852143 -0.0967884 -0.09915634 0.11776386 0.02041383 -0.115126245 -0.103518136
0.16865884 0.08673377 0.030576378 0.08506565 0.10471009 -0.007050246 0.036235347 0.1185482
-0.005315557 0.15349759 -0.10191152 0.08471416 0.1758609 -0.15189712 -0.12800792 0.16233595
-0.03569968 0.019015893 0.030259877 0.064447075 -0.015672743 -0.12337004 -0.10378505 0.08508222
0.17091192 -0.039230913 -0.11224432 0.11556272 0.043586716 0.056134015 -0.05235433 0.023048237
0.08486579 0.13395812 0.07093839 0.17668648 -0.14088628 0.08240004 0.17592527 -0.007363498
0.13539477 0.123101994 -0.108959 0.10310085 0.116803095 -0.023301974 0.13290016 -0.07802338
0.044485852 0.03798738 -0.01802808 0.13593619 0.06384088 0.16215856 -0.0502629 0.1309567
0.069301516 -0.033403993 0.13014375 0.07536529 0.1579483 -0.0034864694 0.032638833 -0.049462974
-0.09029832 -0.14307201 0.10967411 -0.12294775 0.013258994 0.062696114 0.038349137 -0.0011776686
0.07342018 -0.096093446 0.1260704 0.13152702 -0.013819531 -0.046774358 0.102181986 0.05256532
0.07762386 0.17521016 -0.09623015 -0.0671931 0.14615257 -0.013826504 0.15391271 -0.01007919
-0.056455724 -0.04748854 0.13619252 -0.004596457 -0.0702424 -0.089750655 0.016943008 0.17338814
-0.015530378 0.0051444024 -0.023561075 0.035364285 -0.1118174 -0.093570426 0.043651834 -0.011726588
-0.12546922 -0.022379413 -0.0049695373 0.09503673 -0.039243624 0.12055652 0.08282347 0.1470233
00000000: 5bc2 073e e29b b93d a839 0ebe 90e5 d3bc
00000010: c291 ae3d 3055 84bc e987 2fbe be71 26be
00000020: 02b1 c83d 9327 33be 108b febd 0a6b a53d
00000030: 68de 123d 84a2 c5bd c6cf 54bd c290 f8bd
00000040: 735f 1f3e 7cd8 46bd 32a6 6bbd 489d 31bd
00000050: c092 99bd 4210 d23d d6b1 0fbe 966e d93d
00000060: a013 78bc 2718 22be a151 203e 040c 6cbd
00000070: fe22 13be e6c3 1dbe 0caa 4bbd 00de 65bd
00000080: c0ed eb3c c69e f03d 2f40 97bd 0ed1 983d
00000090: e446 95bd 98b6 613d b05a 243d 9b3b e1bd
000000a0: ab6f 22be 8049 9c3a 104e b13c 8425 7e3d
000000b0: b992 153e 0a8b 8ebd 74c1 923d 66b6 03be
000000c0: 2368 2b3e ccf7 32be 4ed7 14be 7e5a a03d
000000d0: 08d8 cabc aa1e d6bd c66f abbd d252 c93d
000000e0: 10ad 2e3c 3476 943d 8278 af3d 96d6 e9bd
000000f0: 2104 0b3e db73 ddbd 5979 203e aa73 a53d
00000100: a00c 54bd 8c5f 04be 1001 843d 773c 1d3e
00000110: dbdb 213e 09c5 223e 66e8 e83d f644 2cbe
00000120: 009d afbb ad00 0b3e 5ed7 9abd 607a ae3b
00000130: 761c e13d ce64 f7bd 403b babb aa0c be3d
00000140: 6373 143e 5010 d83c 36b0 b43d d40a 17bd
00000150: 0001 293a e65c ee3d 507b a83c 8e83 e83d
00000160: 0c12 2d3d 517a 003e ec97 7c3d 20c8 d3bc
00000170: 4203 ea3d e092 873d 15d1 2b3e b001 11be
00000180: f6fe b33d 78d7 c63c 2af4 cc3d 5252 a13d
00000190: 0a78 b53d fcec 363d ea97 25be 001b 7cbb
000001a0: 780d 85bc d2b6 a03d 9070 a03c 9ebb 893d
000001b0: dbc9 2bbe ec41 39bd bf85 d6bd da70 18be
000001c0: 889b 01bd 1061 d7bc 9a2e a53d bce0 13be
000001d0: 1853 c4bd 83f5 c3bd 34f3 5f3d 6b33 243e
000001e0: 0071 a83c eaf2 c93d 980b dcbd 4ed3 de3d
000001f0: 5019 f83c 46a4 aabd d829 c93c 6b91 d1bd
00000200: 01f6 96bd 8428 2fbd 5412 10bd 30b1 473d
00000210: 7320 013e 5a47 fcbd 0435 efbd 06fe 0ebe
00000220: 5d1f e8bd 30cd 313c ff38 c6bd 7b12 cbbd
00000230: 2e2e f13d e83a a73c 4fc7 ebbd 5101 d4bd
00000240: e7b4 2c3e 7aa1 b13d 507b fa3c e636 ae3d
00000250: 3e72 d63d c005 e7bb 846b 143d 66c9 f23d
00000260: 202e aebb 792e 1d3e fdb6 d0bd 9e7e ad3d
00000270: e114 343e eb8a 1bbe 8214 03be 653b 263e
00000280: d439 12bd 38c7 9b3c 90e3 f73c d4fc 833d
00000290: 2064 80bc 6ea9 fcbd 428d d4bd 963f ae3d
000002a0: 8903 2f3e 98b0 20bd 5ae0 e5bd 26ac ec3d
000002b0: fc87 323d c8ec 653d 7e71 56bd a8cf bc3c
000002c0: 1ece ad3d 512c 093e 2648 913d 4ded 343e
000002d0: 7e44 10be 5ac1 a83d c125 343e 8049 f1bb
000002e0: eda4 0a3e e61c fc3d e525 dfbd 8a26 d33d
000002f0: 7636 ef3d c8e3 bebc fb16 083e b9ca 9fbd
00000300: cc36 363d a898 1b3d a0af 93bc db32 0b3e
00000310: 02bf 823d e50c 263e 78e0 4dbd 8319 063e
00000320: f4ed 8d3d a0d2 08bd 6744 053e 1e59 9a3d
00000330: 33bd 213e 407d 64bb 4cb0 053d b099 4abd
00000340: 53ee b8bd 7881 12be d29c e03d 08cc fbbd
00000350: 403c 593c d266 803d fc13 1d3d 005c 9aba
00000360: 525d 963d a4cc c4bd 9918 013e 05af 063e
00000370: 506b 62bc 7896 3fbd ca44 d13d bc4e 573d
00000380: 42f9 9e3d 4b6a 333e 5014 c5bd 899c 89bd
00000390: 05a9 153e 9088 62bc 4b9b 1d3e 3023 25bc
000003a0: 1e3e 67bd 5883 42bd 0d76 0b3e e09d 96bb
000003b0: 3fdb 8fbd 31cf b7bd 10cc 8a3c a98c 313e
000003c0: 2073 7ebc 6092 a83b 2803 c1bc 24da 103d
000003d0: 8500 e5bd daa1 bfbd 44cc 323d e020 40bc
000003e0: 017b 00be 0855 b7bc 80d7 a2bb 9ea2 c23d
000003f0: ecbd 20bd 56e6 f63d 5a9f a93d 478d 163e

de.upsample1_conv.bias f4 [32]
0.017618 0.14691721 0.16049616 0.11380564 0.028633013 0.06576879 -0.14600548 -0.11285044
0.05898495 0.024808198 0.16674279 0.101354584 -0.08569546 -0.047712848 -0.07784192 -0.13773274
0.16350155 0.028273582 0.024214476 0.17244272 0.08596663 -0.09952818 0.04418753 0.0018600076
-0.1108205 -0.14814653 0.10579048 0.114093885 0.0021297783 0.09916471 -0.16115896 -0.14600949
00000000: a053 903c 7771 163e 1b59 243e ee12 e93d
00000010: c88f ea3c cab1 863d 7682 15be 221e e7bd
00000020: 349a 713d 903a cb3c 9fbe 2a3e fe92 cf3d
00000030: 1a81 afbd 8c6e 43bd 966b 9fbd d009 0dbe
00000040: f36c 273e 009e e73c 705d c63c d394 303e
00000050: 460f b03d 6ed5 cbbd fcfd 343d 80cb f33a
00000060: dcf5 e2bd b9b3 17be aea8 d83d 0eaa e93d
00000070: c093 0b3b de16 cb3d db06 25be 8383 15be

de.upsample2_bn.weight f4 [32]
1.0 1.0 1.0 1.0 1.0 1.0 1.0 1.0
1.0 1.0 1.0 1.0 1.0 1.0 1.0 1.0
1.0 1.0 1.0 1.0 1.0 1.0 1.0 1.0
1.0 1.0 1.0 1.0 1.0 1.0 1.0 1.0
00000000: 0000 803f 0000 803f 0000 803f 0000 803f
00000010: 0000 803f 0000 803f 0000 803f 0000 803f
00000020: 0000 803f 0000 803f 0000 803f 0000 803f
00000030: 0000 803f 0000 803f 0000 803f 0000 803f
00000040: 0000 803f 0000 803f 0000 803f 0000 803f
00000050: 0000 803f 0000 803f 0000 803f 0000 803f
00000060: 0000 803f 0000 803f 0000 803f 0000 803f
00000070: 0000 803f 0000 803f 0000 803f 0000 803f

de.upsample2_bn.bias f4 [32]
0.0 0.0 0.0 0.0 0.0 0.0 0.0 0.0
0.0 0.0 0.0 0.0 0.0 0.0 0.0 0.0
0.0 0.0 0.0 0.0 0.0 0.0 0.0 0.0
0.0 0.0 0.0 0.0 0.0 0.0 0.0 0.0
00000000: 0000 0000 0000 0000 0000 0000 0000 0000
00000010: 0000 0000 0000 0000 0000 0000 0000 0000
00000020: 0000 0000 0000 0000 0000 0000 0000 0000
00000030: 0000 0000 0000 0000 0000 0000 0000 0000
00000040: 0000 0000 0000 0000 0000 0000 0000 0000
00000050: 0000 0000 0000 0000 0000 0000 0000 0000
00000060: 0000 0000 0000 0000 0000 0000 0000 0000
00000070: 0000 0000 0000 0000 0000 0000 0000 0000

de.upsample2_bn.running_mean f4 [32]
0.0 0.0 0.0 0.0 0.0 0.0 0.0 0.0
0.0 0.0 0.0 0.0 0.0 0.0 0.0 0.0
0.0 0.0 0.0 0.0 0.0 0.0 0.0 0.0
0.0 0.0 0.0 0.0 0.0 0.0 0.0 0.0
00000000: 0000 0000 0000 0000 0000 0000 0000 0000
00000010: 0000 0000 0000 0000 0000 0000 0000 0000
00000020: 0000 0000 0000 0000 0000 0000 0000 0000
00000030: 0000 0000 0000 0000 0000 0000 0000 0000
00000040: 0000 0000 0000 0000 0000 0000 0000 0000
00000050: 0000 0000 0000 0000 0000 0000 0000 0000
00000060: 0000 0000 0000 0000 0000 0000 0000 0000
00000070: 0000 0000 0000 0000 0000 0000 0000 0000

de.upsample2_bn.running_var f4 [32]
1.0 1.0 1.0 1.0 1.0 1.0 1.0 1.0
1.0 1.0 1.0 1.0 1.0 1.0 1.0 1.0
1.0 1.0 1.0 1.0 1.0 1.0 1.0 1.0
1.0 1.0 1.0 1.0 1.0 1.0 1.0 1.0
00000000: 0000 803f 0000 803f 0000 803f 0000 803f
00000010: 0000 803f 0000 803f 0000 803f 0000 803f
00000020: 0000 803f 0000 803f 0000 803f 0000 803f
00000030: 0000 803f 0000 803f 0000 803f 0000 803f
00000040: 0000 803f 0000 803f 0000 803f 0000 803f
00000050: 0000 803f 0000 803f 0000 803f 0000 803f
00000060: 0000 803f 0000 803f 0000 803f 0000 803f
00000070: 0000 803f 0000 803f 0000 803f 0000 803f

de.upsample2_conv.weight f4 [16, 32, 1, 1]
0.077069625 0.06977452 0.12815334 0.1649882 -0.11821559 -0.08863748 -0.14534514 -0.04986313
-0.120280825 -0.14475381 -0.16254725 -0.032204002 -0.12753665 -0.15842032 0.07071094 0.07766409
-0.010987982 -0.06309605 -0.10069165 0.008454651 0.11323781 -0.16007796 0.122097746 -0.112383306
0.051815286 0.029973537 -0.14616187 0.011893615 0.16450225 0.17080684 0.1308486 0.14541532
-0.1712439 -0.12629005 0.09047817 -0.062153153 -0.09714353 -0.08308102 0.071852595 0.17420541
-0.029143274 -0.16167605 -0.03137584 -0.07289017 0.108283415 0.16604291 0.14521317 -0.15740173
0.09372611 -0.13464662 0.13277428 -0.10314558 0.04242687 0.103700235 -0.07877275 0.109341994
-0.17550807 0.09350665 -0.09645416 0.041257292 0.17175083 0.11907272 -0.03409864 -0.0022021085
-0.077551484 -0.025284946 0.08764531 -0.019522026 -0.07826916 0.17326395 -0.028415233 0.059552968
-0.03031966 0.014309585 -0.15511064 0.091487184 0.023849338 0.16347302 -0.0993598 -0.045483366
0.04564762 0.09962781 -0.15950271 0.12808843 0.0074364096 0.11642109 0.13705136 -0.045090616
-0.048917428 0.09409906 -0.13517244 -0.11718219 -0.13301852 -0.17000355 -0.025723547 0.082058474
0.055687025 -0.001769036 0.084556386 -0.020641804 -0.1165334 -0.004691094 0.009583563 0.046440005
-0.09858883 0.09613769 0.004115805 0.017759085 0.052436456 -0.05918762 0.13041247 -0.008125976
-0.03244391 -0.10187593 0.0437382 0.06244412 0.014486834 -0.115439326 0.09530155 -0.053986445
0.02159284 -0.16029723 0.13855888 0.0142864585 0.13554014 0.084030494 0.109700516 -0.11716996
-0.16527674 -0.1461831 0.06573655 -0.063789085 0.005554974 0.13418226 -0.13254058 0.15849625
-0.11246178 -0.1587542 0.0972753 0.15976913 0.052747726 0.112501994 0.075480446 -0.05444759
-0.15535712 0.15868028 0.08705799 -0.14135022 0.08638771 -0.029473603 -0.13053165 0.1448064
0.024320588 -0.07817315 -0.09610758 -0.13761899 0.17228703 0.013239741 0.12042521 0.05018714
0.0036581606 0.11524905 -0.08744358 -0.07119405 -0.066312715 -0.022474676 0.024368197 0.14573584
-0.028026477 0.0005402565 -0.095448874 -0.14141765 -0.043033138 -0.12522963 0.17084949 0.05527711
-0.16837853 0.13616632 -0.0008894652 -0.0391268 -0.08011557 -0.14770126 -0.12629166 -0.040651858
0.062346965 0.021563277 0.025089025 -0.110542096 -0.100396045 -0.11320137 0.058845803 -0.012839869
0.040225834 0.056519642 0.017709807 -0.032167017 -0.09533248 0.051159367 0.14539976 0.13148989
0.013950735 -0.01981625 0.15991609 -0.11525591 -0.16793557 0.018391669 -0.13011622 0.101515844
-0.10129944 0.14756088 0.005611792 0.012501493 0.14256065 -0.042791173 0.023612797 -0.009874016
-0.10574983 0.08068685 0.005210504 -0.024525061 0.14558889 -0.0024899095 0.16768374 0.116638586
0.020409226 -0.11280794 0.05684963 -0.00032366812 -0.1506091 0.1130607 0.15249635 0.16885726
-0.1466245 0.03957376 0.12386243 -0.024789318 0.12996648 0.053633764 0.0030525029 0.15643258
0.09455572 0.14853255 0.086968556 0.17058752 -0.17046875 0.09288786 -0.11045698 -0.09425346
0.07715361 -0.0072773695 -0.1342775 0.11447962 0.070495784 0.08998187 0.021772236 0.101999804
00000000: aed6 9d3d f2e5 8e3d a13a 033e abf2 283e
00000010: 041b f2bd 9187 b5bd 5bd5 14be 483d 4cbd
00000020: cb55 f6bd 583a 14be c972 26be 58e8 03bd
00000030: f898 02be f038 22be e6d0 903d 5a0e 9f3d
00000040: f006 34bc 8038 81bd 6c37 cebd 6085 0a3c
00000050: 3ae9 e73d 7aeb 23be 620e fa3d 3829 e6bd
00000060: 443c 543d 108b f53c 75ab 15be 70dd 423c
00000070: 4773 283e fde7 2e3e 2dfd 053e c1e7 143e
00000080: 905a 2fbe 2e52 01be 9e4c b93d 4e94 7ebd
00000090: 30f3 c6bd 6226 aabd 7427 933d e762 323e
000000a0: e0bd eebc 688e 25be f483 00bd 7147 95bd
000000b0: b2c3 dd3d 2707 2a3e c3b2 143e eb2d 21be
000000c0: 7af3 bf3d cee0 09be fbf5 073e fd3d d3bd
000000d0: ccc7 2d3d ca60 d43d 9c53 a1bd b2ee df3d
000000e0: 63b8 33be 6a80 bf3d c289 c5bd 68fd 283d
000000f0: 73df 2f3e 66dc f33d 04ab 0bbd 4051 10bb
00000100: 50d3 9ebd 6022 cfbc 627f b33d a8ec 9fbc
00000110: 954b a0bd 1b6c 313e 10c7 e8bc d0ed 733d
00000120: f060 f8bc c072 6a3c 53d5 1ebe a25d bb3d
00000130: b05f c33c 7965 273e 277d cbbd c44c 3abd
00000140: 00f9 3a3d aa09 cc3d ae54 23be 9d29 033e
00000150: 20ad f33b 2e6e ee3d 3157 0c3e f0b0 38bd
00000160: a45d 48bd 02b7 c03d a56a 0abe 37fd efbd
00000170: 0236 08be 6915 2ebe 30ba d2bc 460e a83d
00000180: 1418 643d 00df e7ba e62b ad3d 0019 a9bc
00000190: 10a9 eebd c0b7 99bb 6004 1d3c e037 3e3d
000001a0: f1e8 c9bd d6e3 c43d e0dd 863b 807b 913c
000001b0: 9cc7 563d b86e 72bd d98a 053e d022 05bc
000001c0: e8e3 04bd 54a4 d0bd d426 333d 68c5 7f3d
000001d0: 305a 6d3c 746b ecbd 762d c33d e420 5dbd
000001e0: 78e3 b03c f524 24be 61e2 0d3e c011 6a3c
000001f0: 09cb 0a3e 2e18 ac3d aaaa e03d cef6 efbd
00000200: 4e3e 29be 06b1 15be e2a0 863d daa3 82bd
00000210: 8006 b63b 1367 093e b8b8 07be d74c 223e
00000220: 5d52 e6bd 7690 22be 4638 c73d 859a 233e
00000230: 000e 583d 7267 e63d 7e95 9a3d 7004 5fbd
00000240: f015 1fbe 157d 223e 764b b23d 1dbe 10be
00000250: 0aec b03d a072 f1bc 17aa 05be 2148 143e
00000260: f83b c73c 3f19 a0bd 0dd4 c4bd feeb 0cbe
00000270: 036c 303e 80eb 583c 7ea1 f63d 0891 4d3d
00000280: c0bd 6f3b b207 ec3d 9f15 b3bd 30ce 91bd
00000290: f6ce 87bd d01c b8bc d09f c73c c73b 153e
000002a0: c897 e5bc 00a0 0d3a b37a c3bd cacf 10be
000002b0: 8443 30bd 323c 00be 2bf3 2e3e 406a 623d
000002c0: 6c6b 2cbe 2f6f 0b3e 002b 69ba 6c43 20bd
000002d0: a213 a4bd 003f 17be 9a52 01be 9082 26bd
000002e0: 885f 7f3d 78a5 b03c 8087 cd3c e563 e2bd
000002f0: 719c cdbd 1fd6 e7bd 4c08 713d 505e 52bc
00000300: d8c3 243d 2481 673d 2814 913c 90c1 03bd
00000310: ad3d c3bd 7c8c 513d ade3 143e 49a5 063e
00000320: a091 643c b055 a2bc 0bc1 233e 4a0b ecbd
00000330: 4df7 2bbe 20aa 963c 303d 05be 8ae7 cf3d
00000340: 1576 cfbd 331a 173e 20e3 b73b 10d3 4c3c
00000350: 6bfb 113e cc45 2fbd a06f c13c a0c6 21bc
00000360: 5e93 d8bd 263f a53d e0bc aa3b c8e8 c8bc
00000370: 4115 153e c02d 23bb 49b5 2b3e 36e0 ee3d
00000380: 4031 a73c d907 e7bd 28db 683d 00b2 a9b9
00000390: 4639 1abe 5e8c e73d 0128 1c3e ebe8 2c3e
000003a0: bc24 16be 1818 223d 96ab fd3d f812 cbbc
000003b0: ef15 053e 14af 5b3d 800c 483b dd2f 203e
000003c0: 6ea6 c13d eb18 183e 921c b23d 7fae 2e3e
000003d0: 5c8f 2ebe fe3b be3d 4537 e2bd f507 c1bd
000003e0: b602 9e3d 0077 eebb 0a80 09be 4a74 ea3d
000003f0: 1860 903d 6a48 b83d b05b b23c 46e5 d03d

de.upsample2_conv.bias f4 [16]
-0.09171426 -0.037926808 -0.0040340275 -0.15546861 0.064391 -0.13686965 -0.039158568 0.0958318
-0.14672719 -0.10183389 0.109510675 0.05943595 -0.09691307 -0.052323774 -0.13806301 -0.11549642
00000000: b0d4 bbbd 2459 1bbd e02f 84bb 2a33 1fbe
00000010: 6edf 833d 8f27 0cbe bc64 20bd 7643 c43d
00000020: a73f 16be 498e d0bd 2247 e03d 1c73 733d
00000030: 5c7a c6bd 7451 56bd 6460 0dbe 6389 ecbd

de.upsample3_bn.weight f4 [16]
1.0 1.0 1.0 1.0 1.0 1.0 1.0 1.0
1.0 1.0 1.0 1.0 1.0 1.0 1.0 1.0
00000000: 0000 803f 0000 803f 0000 803f 0000 803f
00000010: 0000 803f 0000 803f 0000 803f 0000 803f
00000020: 0000 803f 0000 803f 0000 803f 0000 803f
00000030: 0000 803f 0000 803f 0000 803f 0000 803f

de.upsample3_bn.bias f4 [16]
0.0 0.0 0.0 0.0 0.0 0.0 0.0 0.0
0.0 0.0 0.0 0.0 0.0 0.0 0.0 0.0
00000000: 0000 0000 0000 0000 0000 0000 0000 0000
00000010: 0000 0000 0000 0000 0000 0000 0000 0000
00000020: 0000 0000 0000 0000 0000 0000 0000 0000
00000030: 0000 0000 0000 0000 0000 0000 0000 0000

de.upsample3_bn.running_mean f4 [16]
0.0 0.0 0.0 0.0 0.0 0.0 0.0 0.0
0.0 0.0 0.0 0.0 0.0 0.0 0.0 0.0
00000000: 0000 0000 0000 0000 0000 0000 0000 0000
00000010: 0000 0000 0000 0000 0000 0000 0000 0000
00000020: 0000 0000 0000 0000 0000 0000 0000 0000
00000030: 0000 0000 0000 0000 0000 0000 0000 0000

de.upsample3_bn.running_var f4 [16]
1.0 1.0 1.0 1.0 1.0 1.0 1.0 1.0
1.0 1.0 1.0 1.0 1.0 1.0 1.0 1.0
00000000: 0000 803f 0000 803f 0000 803f 0000 803f
00000010: 0000 803f 0000 803f 0000 803f 0000 803f
00000020: 0000 803f 0000 803f 0000 803f 0000 803f
00000030: 0000 803f 0000 803f 0000 803f 0000 803f

de.upsample3_conv_with_loooooooooooooooooooooooooooooooong_name.weight f4 [1, 16, 1, 1]
0.018548459 0.16122547 -0.02953443 -0.029001385 0.13694212 -0.067521214 0.0112736225 -0.12444624
-0.045942783 0.17064777 0.22461197 -0.16229236 0.16577461 0.043703884 0.16456026 0.20878309
00000000: f0f2 973c 4a18 253e 30f2 f1bc 5094 edbc
00000010: 8e3a 0c3e 9048 8abd 00b5 383c acdd febd
00000020: 802e 3cbd 4abe 2e3e ae00 663e f82f 26be
00000030: d2c0 293e d802 333d 7c82 283e 3ccb 553e
