models/test_model_1.pth (torch_old, 40194 bytes, 36 tensors)

encoder.0.weight f4 [3]
1.0 1.0 1.0
00000000: 0000 803f 0000 803f 0000 803f

encoder.0.bias f4 [3]
0.0 0.0 0.0
00000000: 0000 0000 0000 0000 0000 0000

encoder.0.running_mean f4 [3]
0.0 0.0 0.0
00000000: 0000 0000 0000 0000 0000 0000

encoder.0.running_var f4 [3]
1.0 1.0 1.0
00000000: 0000 803f 0000 803f 0000 803f

encoder.1.weight f4 [16, 3, 3, 3]
-0.13561215 0.10345648 0.014319763 0.07109608 0.18510954 -0.17820057 0.16866265 0.071212694
-0.18558106 -0.03180647 0.1216632 -0.13310109 0.12951048 -0.06622653 0.17035316 0.08732621
0.1277854 -0.048645616 -0.030840918 0.028033435 0.0935763 0.008669004 -0.17778341 -0.051298708
-0.12566644 0.15311997 -0.15133962 0.13740928 -0.069487 -0.07381897 -0.13858673 -0.1481992
0.13184361 -0.08834866 -0.0029132068 0.152418 0.17730333 -0.09614264 -0.07581266 -0.074771814
-0.008285746 0.025384083 -0.10314118 0.14757408 0.048569754 -0.08207883 -0.17585482 0.04782118
0.18567888 -0.13288854 0.14790384 -0.08248676 -0.06599957 -0.14299932 0.018809214 0.08914627
-0.0008995533 0.11248167 0.08509247 0.017735645 0.05215308 -0.06955158 0.10116337 -0.092258744
-0.10708592 -0.09491353 0.17789204 0.02028428 -0.028080583 0.009618849 0.075895146 -0.105063505
-0.0007175803 -0.08635971 -0.020119324 0.16831465 -0.015917316 0.09390144 -0.1169201 -0.016939312
0.025847241 -0.04285322 -0.08291516 -0.08249433 0.12254499 -0.15633932 -0.15939131 -0.12218732
-0.13616654 -0.17093055 -0.03610155 0.17657007 -0.0059754103 0.11680694 -0.053453654 0.00023308396
-0.13534673 -0.12262573 -0.049641967 0.12567656 0.10918309 0.11688237 -0.17280108 -0.102627605
0.11686851 0.04867056 0.15723102 0.08457662 -0.16719158 -0.013752371 -0.119130775 -0.15715939
-0.14105457 0.033267364 -0.03488797 0.16939731 -0.1532145 0.014373973 -0.011744022 -0.057886437
0.17609532 0.082433 0.17499806 0.088195905 0.06870024 0.10580261 -0.054153085 -0.09339873
-0.17357208 -0.043690845 0.07938476 -0.1913696 0.10959478 -0.14793079 -0.008602247 -0.007415101
0.1792681 -0.06901605 -0.12886965 -0.02551429 -0.08439231 0.0074943006 -0.18518984 0.023356646
-0.07306347 -0.05326225 -0.18284348 0.050204337 -0.070085324 0.087342516 0.019904107 -0.04302703
0.050522953 0.16035031 0.010293663 -0.035275623 0.10492022 -0.012742013 0.04951437 -0.15163298
-0.03724429 0.022369102 0.15138529 0.0091769695 -0.1719569 -0.110432744 0.07825239 -0.05112642
-0.18869323 0.054689765 0.13795616 0.046668947 -0.048920557 -0.1059135 -0.1574508 0.083173886
0.0006362945 0.022299945 -0.1830281 -0.18949482 -0.18739843 0.19067593 0.0251268 0.049151853
0.11686845 0.031147063 -0.040251046 0.16787861 -0.17281672 0.009982139 0.041577682 -0.12825325
-0.13765961 0.004864469 -0.18509223 0.120115355 0.16239448 0.19152312 0.005994037 -0.08657119
0.08478604 -0.07228533 -0.19050187 0.025949031 0.09858571 0.1897917 0.12660931 -0.13916965
0.1723064 0.0395668 -0.085727684 0.11875735 0.104372665 0.0629334 0.13675658 -0.15716591
0.17170794 -0.06275341 0.11632468 -0.14712507 0.12830149 -0.124388285 0.15028982 0.12780996
0.08489002 -0.14755137 -0.15524903 0.06371017 0.1857696 -0.15570867 -0.13829514 0.030787393
0.012625769 0.16964968 0.15345992 0.17298196 -0.15044345 -0.18395455 0.16389118 0.17611803
-0.17596647 -0.16801302 0.006902054 -0.08193604 0.041110024 -0.059234083 0.09008519 -0.052139178
-0.18238601 -0.116950266 -0.038046613 -0.10602023 0.12945138 -0.1375536 -0.071952306 -0.10338728
00000000: e9dd 0abe fee0 d33d 709d 6a3c d29a 913d
00000010: 5b8d 3d3e 367a 36be e7b5 2c3e f6d7 913d
00000020: f608 3ebe 8047 02bd 8e2a f93d a74b 08be
00000030: 659e 043e c6a1 87bd 0f71 2e3e 16d8 b23d
00000040: 2dda 023e a040 47bd 18a6 fcbc 60a6 e53c
00000050: eea4 bf3d 7008 0e3c db0c 36be 981e 52bd
00000060: b4ae 00be 7bcb 1c3e c6f8 1abe 05b5 0c3e
00000070: 334f 8ebd 662e 97bd aee9 0dbe 88c1 17be
00000080: 0302 073e 24f0 b4bd 80eb 3ebb 7713 1c3e
00000090: 018f 353e 6fe6 c4bd ab43 9bbd f721 99bd
000000a0: f0c0 07bc 48f2 cf3c af3b d3bd a91d 173e
000000b0: 14f1 463d f218 a8bd 4913 34be 24e0 433d
000000c0: 9b22 3e3e ef13 08be 1b74 173e d2ee a8bd
000000d0: c82a 87bd 6a6e 12be c815 9a3c 5292 b63d
000000e0: 00d0 6bba ca5c e63d f644 ae3d 584a 913c
000000f0: 789e 553d 0f71 8ebd be2e cf3d 27f2 bcbd
00000100: dd4f dbbd 0662 c2bd 5529 363e 382b a63c
00000110: 4009 e6bc 6098 1d3c ea6e 9b3d 892b d7bd
00000120: 001c 3cba 5cdd b0bd 48d1 a4bc ad5a 2c3e
00000130: 0865 82bc 664f c03d ce73 efbd 50c4 8abc
00000140: 98bd d33c dc86 2fbd 6ccf a9bd caf2 a8bd
00000150: def8 fa3d 6a17 20be 7a37 23be 583d fabd
00000160: 3e6f 0bbe 6b08 2fbe 38df 13bd c9ce 343e
00000170: 60cd c3bb 7a38 ef3d 38f2 5abd 0068 7439
00000180: 5598 0abe 3323 fbbd 6055 4bbd 5bb1 003e
00000190: 629b df3d 0660 ef3d c4f2 30be 6c2e d2bd
000001a0: c258 ef3d c85a 473d 2b01 213e 8236 ad3d
000001b0: 4534 2bbe a051 61bc d6fa f3bd 64ee 20be
000001c0: 9c70 10be 5c43 083d b0e6 0ebd 7d76 2d3e
000001d0: 43e4 1cbe d080 6b3c 006a 40bc 541a 6dbd
000001e0: 5552 343e a2d2 a83d b132 333e 0ea0 b43d
000001f0: b6b2 8c3d 0aaf d83d a0cf 5dbd d547 bfbd
00000200: e1bc 31be 2cf5 32bd 7a94 a23d 64f6 43be
00000210: 3a73 e03d 2b7b 17be 70f0 0cbc 60fa f2bb
00000220: 0f92 373e 4958 8dbd 68f6 03be 5803 d1bc
00000230: e0d5 acbd c092 f53b 68a2 3dbe 7056 bf3c
00000240: 4da2 95bd 8429 5abd 523b 3bbe 10a3 4d3d
00000250: e588 8fbd a2e0 b23d f00d a33c 1c3d 30bd
00000260: 28f1 4e3d df32 243e c0a6 283c 2c7d 10bd
00000270: 6ae0 d63d e0c3 50bc 94cf 4a3d ad45 1bbe
00000280: 788d 18bd 683f b73c bf04 1b3e 005b 163c
00000290: 7815 30be 902a e2bd ca42 a03d f069 51bd
000002a0: cc38 41be 6002 603d 6144 0d3e f027 3f3d
000002b0: ec60 48bd 2de9 d8bd c83a 21be 1257 aa3d
000002c0: 00cd 263a 60ae b63c b86b 3bbe ee0a 42be
000002d0: 60e5 3fbe 8d40 433e b8d6 cd3c 7453 493d
000002e0: ba58 ef3d 2028 ff3c 48de 24bd 5fe8 2b3e
000002f0: def6 30be 208c 233c 5c4d 2a3d d254 03be
00000300: a4f6 0cbe 2066 9f3b d188 3dbe 0aff f53d
00000310: bd4a 263e a31e 443e a069 c43b 3c4c b1bd
00000320: 4ea4 ad3d 550a 94bd ec12 43be 1093 d43c
00000330: 4ee7 c93d c158 423e dfa5 013e 7d82 0ebe
00000340: 1771 303e cc10 223d ff91 afbd 0e37 f33d
00000350: 56c1 d53d 3ae3 803d eb09 0c3e 1af0 20be
00000360: 35d4 2f3e dc84 80bd a23b ee3d f4a7 16be
00000370: 7761 033e 49bf febd 93e5 193e 9de0 023e
00000380: d2da ad3d b517 17be 9af9 1ebe 7a7a 823d
00000390: 633a 3e3e 1872 1fbe 3e9d 0dbe d835 fc3c
000003a0: 50dc 4e3c a5b8 2d3e 9924 1d3e 2f22 313e
000003b0: d90d 1abe 955e 3cbe 17d3 273e 4958 343e
000003c0: 8e30 34be 9b0b 2cbe a02a e23b 15ce a7bd
000003d0: fc62 283d 709f 72bd 967e b83d e48f 55bd
000003e0: 66c3 3abe 9f83 efbd c4d6 1bbd 2221 d9bd
000003f0: e78e 043e dada 0cbe bb5b 93bd b6bc d3bd

encoder.1.bias f4 [16]
-0.07174727 0.14865045 0.11794682 -0.13724068 0.02919285 0.123472646 -0.13353859 -0.0074306726
-0.11211 -0.10837619 -0.015164286 0.007567391 0.17488323 -0.1223923 -0.080381915 0.16767679
00000000: 3cf0 92bd d337 183e 1a8e f13d d288 0cbe
00000010: d825 ef3c 3adf fc3d 57be 08be 007d f3bb
00000020: ed99 e5bd 56f4 ddbd a073 78bc e0f7 f73b
00000030: 9714 333e d0a8 fabd 469f a4bd 77b3 2b3e

encoder.4.weight f4 [16]
1.0 1.0 1.0 1.0 1.0 1.0 1.0 1.0
1.0 1.0 1.0 1.0 1.0 1.0 1.0 1.0
00000000: 0000 803f 0000 803f 0000 803f 0000 803f
00000010: 0000 803f 0000 803f 0000 803f 0000 803f
00000020: 0000 803f 0000 803f 0000 803f 0000 803f
00000030: 0000 803f 0000 803f 0000 803f 0000 803f

encoder.4.bias f4 [16]
0.0 0.0 0.0 0.0 0.0 0.0 0.0 0.0
0.0 0.0 0.0 0.0 0.0 0.0 0.0 0.0
00000000: 0000 0000 0000 0000 0000 0000 0000 0000
00000010: 0000 0000 0000 0000 0000 0000 0000 0000
00000020: 0000 0000 0000 0000 0000 0000 0000 0000
00000030: 0000 0000 0000 0000 0000 0000 0000 0000

encoder.4.running_mean f4 [16]
0.0 0.0 0.0 0.0 0.0 0.0 0.0 0.0
0.0 0.0 0.0 0.0 0.0 0.0 0.0 0.0
00000000: 0000 0000 0000 0000 0000 0000 0000 0000
00000010: 0000 0000 0000 0000 0000 0000 0000 0000
00000020: 0000 0000 0000 0000 0000 0000 0000 0000
00000030: 0000 0000 0000 0000 0000 0000 0000 0000

encoder.4.running_var f4 [16]
1.0 1.0 1.0 1.0 1.0 1.0 1.0 1.0
1.0 1.0 1.0 1.0 1.0 1.0 1.0 1.0
00000000: 0000 803f 0000 803f 0000 803f 0000 803f
00000010: 0000 803f 0000 803f 0000 803f 0000 803f
00000020: 0000 803f 0000 803f 0000 803f 0000 803f
00000030: 0000 803f 0000 803f 0000 803f 0000 803f

encoder.5.weight f4 [32, 16, 3, 3]
0.06749805 0.021897249 -0.069047265 -0.02397719 0.05996359 -0.08137127 0.044733338 0.03841848
-0.007982887 0.009711705 -0.021488559 -0.055615257 -0.053773414 -0.02596442 0.06405281 -0.080240145
-0.025223058 -0.02525922 0.06900055 0.03888593 0.06064365 0.04198835 0.025609553 0.03480012
0.0344385 -0.0002664551 0.018072218 0.063767694 -0.057211727 0.028943725 -0.034137458 -0.07395094
-0.042084567 0.07868608 0.021799482 0.02484303 -0.05662806 0.050084837 -0.034874223 -0.055086117
0.03527364 0.07509158 -0.047688156 0.0022035465 -0.006275058 0.0065319464 0.004101932 -0.061924994
-0.006150961 -0.035080396 0.082278885 -0.030735563 0.04702232 -0.04677893 0.042228602 0.009761967
-0.008181244 -0.08247772 -0.052234612 0.08025821 -0.07477548 0.025199823 -0.04111787 0.059718378
-0.0078419745 -0.054940253 -0.016770266 -0.06502881 -0.0046829507 -0.0060388744 -0.0020910725 0.07684613
0.037528567 0.078416444 -0.0043101087 -0.016557962 0.002431579 0.06040729 -0.015548848 -0.010125481
-0.012390226 0.023450784 0.0057301894 -0.06722521 0.07301531 0.022901148 0.06043569 0.017502196
0.020406216 -0.076858625 -0.06594524 -0.071613654 0.063495316 -0.027311824 0.071280114 0.0774648
-0.05624348 -0.05239743 -0.042554658 -0.044073373 -0.017717235 0.026518844 -0.06701888 0.05221235
-0.017823823 9.199977e-05 -0.062432848 0.07651632 -0.0486404 0.055339463 0.02912426 -0.0471692
0.017799757 0.0067024156 0.03883031 0.012522571 0.030619182 -0.07114394 0.038962744 0.0047347248
-0.013225645 0.05401241 -0.045699887 -0.066708826 -0.010360099 -0.07785213 0.059108384 -0.03534014
0.06537605 0.059055425 -0.03967176 -0.06892502 -0.033496052 0.073733516 0.0809109 0.063596256
-0.01371441 0.052833967 -0.048431307 -0.005519204 -0.07319616 -0.03438925 -0.05733636 -0.007583387
0.07870788 0.077243276 -0.07848233 0.063322105 0.077298455 0.04818646 0.062363572 0.011616312
0.07506325 -0.071703576 0.015508689 0.07180735 -0.057877224 0.066611685 0.019012906 -0.037745904
-0.04605642 0.04131794 -0.025060654 0.07233686 0.01403895 0.005624689 -0.017309673 -0.0630136
0.04387442 0.014187388 0.016396858 0.019010752 -0.06948234 -0.0037295148 0.004296921 0.021504521
0.055176325 0.05682593 0.028536499 0.045390926 -0.015082382 0.00929033 0.004363589 -0.08019489
-0.05072686 0.041721307 0.08231556 0.033913217 -0.08284533 0.013760261 -0.038577914 0.04867091
0.010545194 0.05816721 0.046257712 -0.070668235 -0.056262136 0.056131877 0.011196017 -0.044752836
-0.009287126 0.036731444 0.016868986 0.01959879 0.005076684 0.037994653 -0.03834843 0.04095029
0.026366703 -0.05891957 0.05016894 0.011939071 -0.025161874 0.024197109 0.017083377 -0.00812757
-0.016895406 -0.024743449 -0.0068166777 -0.07604988 0.07010884 -0.032591313 0.0006446317 -0.028492026
0.050791718 -0.058538437 0.061461084 -0.059023958 0.008428492 -0.055692118 0.013933487 -0.0010515824
-0.028573781 0.059368394 0.05871681 -0.0020865425 0.030421488 0.06535537 0.038201563 -0.051587813
0.033166848 -0.068553895 0.035052292 -0.025018573 0.061818667 -0.014220595 0.06528989 -0.019552164
-0.064026 -0.07700364 0.011800528 -0.05179616 -0.077429235 0.061865337 -0.02014231 0.0015841201
00000000: 6b3c 8a3d dc61 b33c a768 8dbd d06b c4bc
00000010: 629c 753d fba5 a6bd 4e3a 373d b25c 1d3d
00000020: a8ca 02bc d81d 1f3c c608 b0bc d3cc 63bd
00000030: 8341 5cbd 56b3 d4bc 1f2e 833d f254 a4bd
00000040: 96a0 cebc 6cec cebc 2950 8d3d da46 1f3d
00000050: 7a65 783d fafb 2b3d 20cb d13c 928a 0e3d
00000060: 620f 0d3d 00b3 8bb9 300c 943c a398 823d
00000070: d856 6abd 641b ed3c b8d3 0bbd 9773 97bd
00000080: de60 2cbd 2b26 a13d d494 b23c 9c83 cb3c
00000090: d3f2 67bd c225 4d3d 46d8 0ebd fba1 61bd
000000a0: 187b 103d 9dc9 993d a854 43bd 6069 103b
000000b0: 009f cdbb f009 d63b 8069 863b 10a5 7dbd
000000c0: 008e c9bb 76b0 0fbd d581 a83d 26c9 fbbc
000000d0: 7a9a 403d 439b 3fbd e6f7 2c3d a8f0 1f3c
000000e0: a00a 06bc 14ea a8bd f6f3 55bd 6b5e a43d
000000f0: e323 99bd dc6f ce3c 366b 28bd 429b 743d
00000100: a07b 00bc 0809 61bd cc61 89bc d32d 85bd
00000110: 7073 99bb c0e1 c5bb 600a 09bb 8161 9d3d
00000120: 8eb7 193d cd98 a03d d03b 8dbb 90a4 87bc
00000130: 205b 1f3b a26d 773d 98c0 7ebc 58e5 25bc
00000140: 6000 4bbc dc1b c03c 50c4 bb3b 5fad 89bd
00000150: 0d89 953d 309b bb3c 6a8b 773d c460 8f3c
00000160: f02a a73c 0e68 9dbd 4c0e 87bd 2eaa 92bd
00000170: d509 823d 0cbd dfbc 4ffb 913d dda5 9e3d
00000180: 905f 66bd b09e 56bd cb4d 2ebd 4886 34bd
00000190: bc23 91bc 0c3e d93c 3241 89bd 9edc 553d
000001a0: 4403 92bc 00f0 c038 96b9 7fbd 97b4 9c3d
000001b0: 283b 47bd a2ab 623d 0096 ee3c 7e34 41bd
000001c0: ccd0 913c f09f db3b 880c 1f3d 782b 4d3c
000001d0: 14d5 fa3c eab3 91bd 6697 1f3d c025 9b3b
000001e0: 60b0 58bc 1e3c 5d3d ce2f 3bbd a39e 88bd
000001f0: 68bd 29bc f070 9fbd a21b 723d d3c0 10bd
00000200: e1e3 853d 1ae4 713d db7e 22bd 9028 8dbd
00000210: 2833 09bd 9901 973d 9db4 a53d c13e 823d
00000220: 68b2 60bc 6e68 583d e85f 46bd 70da b4bb
00000230: dee7 95bd bedb 0cbd 88d9 6abd 107e f8bb
00000240: 9931 a13d b931 9e3d 58bb a0bd 05af 813d
00000250: a74e 9e3d 2a5f 453d f270 7f3d 5852 3e3c
00000260: c3ba 993d 53d9 92bd 2818 7e3c bb0f 933d
00000270: ab10 6dbd b56b 883d f4c0 9b3c 739b 1abd
00000280: a8a5 3cbd 003d 293d 004c cdbc 5925 943d
00000290: a003 663c 504f b83b 04cd 8dbc 460d 81bd
000002a0: aab5 333d 3872 683c b452 863c 70bc 9b3c
000002b0: c24c 8ebd e06a 74bb 30cd 8c3b 402a b03c
000002c0: 9200 623d 4ec2 683d 60c5 e93c d6eb 393d
000002d0: 181c 77bc 7836 183c 70fc 8e3b 383d a4bd
000002e0: f8c6 4fbd f6e3 2a3d 0f95 a83d 96e8 0a3d
000002f0: d0aa a9bd b872 613c e003 1ebd 265b 473d
00000300: c0c5 2c3c be40 6e3d ba78 3d3d 82ba 90bd
00000310: 2073 66bd 8aea 653d 806f 373c c04e 37bd
00000320: 0829 18bc b673 163d d430 8a3c a48d a03c
00000330: 505a a63b 48a0 1b3d 3e13 1dbd 7ebb 273d
00000340: fcfe d73c a655 71bd f27d 4d3d 189c 433c
00000350: 4620 cebc 0439 c63c 70f2 8b3c 8029 05bc
00000360: 3c68 8abc c6b2 cabc 705e dfbb 0ac0 9bbd
00000370: 3995 8f3d 787e 05bd 80fc 283a 1c68 e9bc
00000380: fa0a 503d 00c6 6fbd 9ebe 7b3d 1bc3 71bd
00000390: a817 0a3c 6b1d 64bd 4849 643c 40d5 89ba
000003a0: 9013 eabc 462c 733d 0a81 703d 60be 08bb
000003b0: 7c36 f93c 09d9 853d 3e79 1c3d be4d 53bd
000003c0: f6d9 073d fc65 8cbd fe92 0f3d c0f3 ccbc
000003d0: 9235 7d3d 80fd 68bc b5b6 853d dc2b a0bc
000003e0: 1020 83bd 16b4 9dbd 0057 413c 3628 54bd
000003f0: 3893 9ebd 8266 7d3d 7c01 a5bc 40a2 cf3a

encoder.5.bias f4 [32]
-0.06868311 0.070697285 0.039188884 -0.027029913 0.027001679 -0.02769227 -0.03797899 0.06255559
-0.01794023 0.025318764 -0.077964276 -0.059960306 -0.021726996 -0.030885719 0.044197 -0.0822564
0.027857386 -0.06988908 0.0134380385 0.00081694126 -0.07790372 0.06821404 0.043818615 -0.055950493
-0.047640353 0.03147588 -0.06960909 -0.038695317 -0.06098346 0.028270356 0.0534823 -0.017239623
00000000: bba9 8cbd bdc9 903d 8684 203d d66d ddbc
00000010: a032 dd3c e6da e2bc db8f 1bbd 251d 803d
00000020: 64f7 92bc 4c69 cf3c bcab 9fbd f098 75bd
00000030: d0fc b1bc 0c04 fdbc ea07 353d 0b76 a8bd
00000040: 2c35 e43c 0222 8fbd 382b 5c3c 0028 563a
00000050: fc8b 9fbd cdb3 8b3d 267b 333d 582c 65bd
00000060: 8822 43bd daec 003d 368f 8ebd fb7e 1ebd
00000070: cbc9 79bd 3c97 e73c 4210 5b3d 1c3a 8dbc

encoder.8.0.weight f4 [32]
1.0 1.0 1.0 1.0 1.0 1.0 1.0 1.0
1.0 1.0 1.0 1.0 1.0 1.0 1.0 1.0
1.0 1.0 1.0 1.0 1.0 1.0 1.0 1.0
1.0 1.0 1.0 1.0 1.0 1.0 1.0 1.0
00000000: 0000 803f 0000 803f 0000 803f 0000 803f
00000010: 0000 803f 0000 803f 0000 803f 0000 803f
00000020: 0000 803f 0000 803f 0000 803f 0000 803f
00000030: 0000 803f 0000 803f 0000 803f 0000 803f
00000040: 0000 803f 0000 803f 0000 803f 0000 803f
00000050: 0000 803f 0000 803f 0000 803f 0000 803f
00000060: 0000 803f 0000 803f 0000 803f 0000 803f
00000070: 0000 803f 0000 803f 0000 803f 0000 803f

encoder.8.0.bias f4 [32]
0.0 0.0 0.0 0.0 0.0 0.0 0.0 0.0
0.0 0.0 0.0 0.0 0.0 0.0 0.0 0.0
0.0 0.0 0.0 0.0 0.0 0.0 0.0 0.0
0.0 0.0 0.0 0.0 0.0 0.0 0.0 0.0
00000000: 0000 0000 0000 0000 0000 0000 0000 0000
00000010: 0000 0000 0000 0000 0000 0000 0000 0000
00000020: 0000 0000 0000 0000 0000 0000 0000 0000
00000030: 0000 0000 0000 0000 0000 0000 0000 0000
00000040: 0000 0000 0000 0000 0000 0000 0000 0000
00000050: 0000 0000 0000 0000 0000 0000 0000 0000
00000060: 0000 0000 0000 0000 0000 0000 0000 0000
00000070: 0000 0000 0000 0000 0000 0000 0000 0000

encoder.8.0.running_mean f4 [32]
0.0 0.0 0.0 0.0 0.0 0.0 0.0 0.0
0.0 0.0 0.0 0.0 0.0 0.0 0.0 0.0
0.0 0.0 0.0 0.0 0.0 0.0 0.0 0.0
0.0 0.0 0.0 0.0 0.0 0.0 0.0 0.0
00000000: 0000 0000 0000 0000 0000 0000 0000 0000
00000010: 0000 0000 0000 0000 0000 0000 0000 0000
00000020: 0000 0000 0000 0000 0000 0000 0000 0000
00000030: 0000 0000 0000 0000 0000 0000 0000 0000
00000040: 0000 0000 0000 0000 0000 0000 0000 0000
00000050: 0000 0000 0000 0000 0000 0000 0000 0000
00000060: 0000 0000 0000 0000 0000 0000 0000 0000
00000070: 0000 0000 0000 0000 0000 0000 0000 0000

encoder.8.0.running_var f4 [32]
1.0 1.0 1.0 1.0 1.0 1.0 1.0 1.0
1.0 1.0 1.0 1.0 1.0 1.0 1.0 1.0
1.0 1.0 1.0 1.0 1.0 1.0 1.0 1.0
1.0 1.0 1.0 1.0 1.0 1.0 1.0 1.0
00000000: 0000 803f 0000 803f 0000 803f 0000 803f
00000010: 0000 803f 0000 803f 0000 803f 0000 803f
00000020: 0000 803f 0000 803f 0000 803f 0000 803f
00000030: 0000 803f 0000 803f 0000 803f 0000 803f
00000040: 0000 803f 0000 803f 0000 803f 0000 803f
00000050: 0000 803f 0000 803f 0000 803f 0000 803f
00000060: 0000 803f 0000 803f 0000 803f 0000 803f
00000070: 0000 803f 0000 803f 0000 803f 0000 803f

encoder.8.1.weight f4 [32, 32, 1, 1]
-0.15956996 0.10793014 0.15654568 -0.03684421 0.15942667 -0.16430683 0.10462876 0.052534312
-0.086211294 0.14322333 -0.017315343 0.100112155 0.093475565 0.027801007 -0.06708908 -0.123567894
0.05205509 0.16765492 -0.08941258 -0.022018924 0.117021546 -0.1475044 0.060213596 0.13928632
-0.16435178 0.0627913 0.04982181 -0.008086741 0.1044309 -0.0900385 0.020180494 0.0685865
0.005862102 0.06700294 0.1558493 -0.10559458 0.08933814 -0.018154502 0.04210511 -0.10116576
-0.030471176 0.09913848 -0.08479164 -0.031653076 0.023674384 0.09077568 0.06624423 0.13363557
-0.043670207 0.17197324 0.120053545 -0.05053076 0.17387627 0.032448962 0.10622291 0.07683523
0.074262455 -0.16232583 -0.0945554 -0.011671931 -0.03338732 0.14367516 -0.14069578 0.14310719
-0.025621518 -0.15078266 -0.12888135 -0.0203038 -0.15468842 0.16447212 -0.10664017 -0.043636993
0.00045646727 0.11914487 -0.01758419 0.17252572 -0.06792849 -0.14328182 0.04284455 0.12727942
0.0936691 -0.11780006 0.004778594 0.09762402 0.018216655 -0.04338537 -0.12693428 -0.06744781
0.12857495 0.09124456 0.042592674 -0.061283812 -0.15090826 0.16500424 -0.048015624 -0.08033965
0.14029057 0.14925803 0.051226586 -0.004540667 0.10168697 0.07416554 0.08766867 -0.13174753
0.090618834 0.17345707 0.06595121 -0.112880066 0.13542901 0.16804405 -0.16941814 -0.08150016
-0.040463418 0.03698276 0.031684905 0.16401814 -0.15582617 -0.013276845 -0.05245883 -0.048047423
0.05559151 0.12085576 0.053759277 -0.037266284 0.11110212 0.16733922 0.020075843 0.067412004
-0.13277468 0.16113909 -0.08167615 0.13678758 0.16072293 -0.15133424 0.09475644 0.047796443
0.08013828 0.117835596 -0.17477815 0.094827995 -0.12506694 -0.12555775 0.087623075 -0.030316263
3.9055943e-05 -0.1157171 0.12112592 0.06926167 -0.08108561 0.008245692 0.15461092 -0.10539622
0.11621539 0.021372601 0.08683525 0.011440292 0.019186318 0.11253579 -0.07371108 -0.031283453
-0.093376845 -0.08951186 -0.05974438 -0.08420622 0.018552333 -0.16927123 -0.10664645 0.07926215
-0.13074511 -0.054899134 0.08885054 0.11849783 -0.14080672 -0.10285458 0.1420827 -0.0012655705
-0.017422289 -0.15523177 0.094577536 0.12505959 0.04382825 -0.059034012 0.011974305 0.17258893
0.04280898 -0.047993854 -0.06410915 0.035568416 0.090021655 -0.15796521 0.106622085 0.09721951
0.059370965 -0.13011527 0.069988325 -0.030700758 0.017945156 0.11556484 0.09298332 -0.121696055
0.043091595 0.12489267 -0.045820236 -0.14299837 0.055520505 -0.0053754747 -0.16155285 -0.066816665
-0.10324241 -0.16289087 0.040713012 0.049038455 -0.14412257 0.040283874 -0.1570229 0.04219304
-0.13413529 0.064110056 0.08416332 0.042927936 0.04065898 -0.12973173 -0.042296678 -0.16900843
0.12815432 0.04195574 0.14589192 0.15006281 0.060049623 -0.15626991 -0.0016648024 0.14156337
-0.108527735 0.04982984 0.1691596 0.04784736 0.11871512 -0.060742125 -0.04408881 0.12873705
0.0075752437 -0.11446176 0.069522366 -0.17584313 -0.018649355 0.09484698 0.108429894 -0.13049453
0.0806181 0.058251724 -0.11158197 -0.16304542 -0.041570812 0.082040444 0.12348212 -0.0005157292
00000000: 4f66 23be 7a0a dd3d 834d 203e f4e9 16bd
00000010: bf40 233e 0d40 28be 9a47 d63d 382e 573d
00000020: 8c8f b0bd 23a9 123e e8d8 8dbc 9a07 cd3d
00000030: 1e70 bf3d f0be e33c 0066 89bd 2a11 fdbd
00000040: b837 553d bbad 2b3e f11d b7bd 0861 b4bc
00000050: fea8 ef3d 650b 17be 88a2 763d 13a1 0e3e
00000060: d54b 28be ba98 803d f411 4c3d 407e 04bc
00000070: dedf d53d 1b66 b8bd 9051 a53c 1477 8c3d
00000080: e016 c03b d638 893d f596 1f3e f941 d8bd
00000090: eaf6 b63d c0b8 94bc 6876 2c3d fe2f cfbd
000000a0: b09e f9bc 1e09 cb3d 3da7 adbd a8a6 01bd
000000b0: c8f0 c13c 9ae8 b93d 0eab 873d c3d7 083e
000000c0: 88df 32bd c119 303e a2de f53d 58f9 4ebd
000000d0: 9f0c 323e 34e9 043d 668b d93d ca5b 9d3d
000000e0: ea16 983d be38 26be 43a6 c1bd a03b 3fbc
000000f0: 24c1 08bd 951f 133e 8e12 10be b18a 123e
00000100: 38e4 d1bc c566 1abe 79f9 03be 2854 a6bc
00000110: a466 1ebe 616b 283e 2966 dabd b4bc 32bd
00000120: 0052 ef39 3a02 f43d b80c 90bc 95aa 303e
00000130: 181e 8bbd 78b8 12be c47d 2f3d 8955 023e
00000140: 96d5 bf3d 2841 f1bd c095 9c3b 1aef c73d
00000150: 183b 953c dcb4 31bd 0ffb 01be 1422 8abd
00000160: 27a9 033e 6ede ba3d a875 2e3d bc04 7bbd
00000170: b287 1abe dff6 283e 08ac 44bd 1d89 a4bd
00000180: 55a8 0f3e 19d7 183e f8d2 513d e0c9 94bb
00000190: 4241 d03d 1ae4 973d a28b b33d d3e8 06be
000001a0: 5e96 b93d bb9e 313e 6e11 873d aa2d e7bd
000001b0: e7ad 0a3e bd13 2c3e f37b 2dbe 8ee9 a6bd
000001c0: f8bc 25bd 3c7b 173d 08c8 013d 5ff4 273e
000001d0: e590 1fbe 2087 59bc 12df 56bd 60cd 44bd
000001e0: ecb3 633d 3a83 f73d b032 5c3d 88a4 18bd
000001f0: 8289 e33d f95a 2b3e 1876 a43c 4e0f 8a3d
00000200: 16f6 07be a501 253e d345 a7bd 0b12 0c3e
00000210: 8d94 243e 5df7 1abe aa0f c23d 34c6 433d
00000220: 8a1f a43d ca53 f13d 0bf9 32be 2e35 c23d
00000230: 8c11 00be 3692 00be ba73 b33d d059 f8bc
00000240: 00d0 2338 16fd ecbd de10 f83d 10d9 8d3d
00000250: 3610 a6bd f018 073c 5352 1e3e f9d9 d7bd
00000260: 5602 ee3d 9815 af3c aed6 b13d 1070 3b3c
00000270: a02c 9d3c 2a79 e63d d6f5 96bd 1423 00bd
00000280: 5c3c bfbd fe51 b7bd 86b6 74bd 5074 acbd
00000290: 10fb 973c 7055 2dbe 7469 dabd 3254 a23d
000002a0: 0ce2 05be eadd 60bd 46f7 b53d feae f23d
000002b0: a32f 10be 6ca5 d2bd 217e 113e 80e1 a5ba
000002c0: 30b9 8ebc 14f5 1ebe deb1 c13d 9f0f 003e
000002d0: 4085 333d a6cd 71bd e02f 443c 27bb 303e
000002e0: 7858 2f3d 3495 44bd a84b 83bd 30b0 113d
000002f0: 465d b83d a2c1 21be ae5c da3d 061b c73d
00000300: f82e 733d f03c 05be 0a56 8f3d 2880 fbbc
00000310: b801 933c 42ad ec3d 0a6e be3d c83b f9bd
00000320: d080 303d bac7 ff3d 00ae 3bbd 2a6e 12be
00000330: 7869 633d c024 b0bb 1c6e 25be 2dd7 88bd
00000340: c270 d3bd ddcc 26be b0c2 263d 8cdc 483d
00000350: de94 13be b400 253d 9cca 20be 9cd2 2c3d
00000360: c35a 09be 224c 833d d25d ac3d 34d5 2f3d
00000370: 088a 263d 65d8 04be 483f 2dbd 8c10 2dbe
00000380: e33a 033e c8d9 2b3d b164 153e 11aa 193e
00000390: 98f6 753d 3805 20be 8035 daba fdf5 103e
000003a0: ca43 debd 601a 4c3d 2d38 2d3e 98fb 433d
000003b0: ea20 f33d bccc 78bd 7896 34bd a5d3 033e
000003c0: c039 f83b ed6a eabd be61 8e3d 3910 34be
000003d0: 88c6 98bc 223f c23d 7e10 de3d 5ca0 05be
000003e0: 1a1b a53d 5c99 6e3d 1685 e4bd 61f5 26be
000003f0: 2846 2abd d204 a83d 32e4 fc3d 0032 07ba

encoder.8.1.bias f4 [32]
-0.17637649 -0.096705034 0.023396522 0.0141411275 -0.0050823838 -0.16090605 0.05201517 0.097359136
-0.0058263987 0.17192392 0.012535438 -0.13935927 0.091283664 0.08416055 0.08887355 0.092385575
-0.11618101 -0.14423078 -0.15044773 -0.02649793 -0.013509348 0.1004336 0.016807526 0.12917797
0.024652705 0.04423967 0.036729798 -0.040820062 0.036592335 0.0049827695 -0.17385525 -0.00046005845
00000000: 0a9c 34be 4a0d c6bd 10aa bf3c 30b0 673c
00000010: 208a a6bb 8ec4 24be dc0d 553d 3a64 c73d
00000020: 60eb bebb d30c 303e 7061 4d3c 32b4 0ebe
00000030: eef2 ba3d 5e5c ac3d 5603 b63d a634 bd3d
00000040: 4ff0 edbd 3cb1 13be f80e 1abe 3012 d9bc
00000050: 5056 5dbc 22b0 cd3d f0af 893c 3b47 043e
00000060: 78f4 c93c a834 353d fc71 163d f032 27bd
00000070: d8e1 153d 8046 a33b 1c07 32be 0034 f1b9

decoder.0.weight f4 [32]
1.0 1.0 1.0 1.0 1.0 1.0 1.0 1.0
1.0 1.0 1.0 1.0 1.0 1.0 1.0 1.0
1.0 1.0 1.0 1.0 1.0 1.0 1.0 1.0
1.0 1.0 1.0 1.0 1.0 1.0 1.0 1.0
00000000: 0000 803f 0000 803f 0000 803f 0000 803f
00000010: 0000 803f 0000 803f 0000 803f 0000 803f
00000020: 0000 803f 0000 803f 0000 803f 0000 803f
00000030: 0000 803f 0000 803f 0000 803f 0000 803f
00000040: 0000 803f 0000 803f 0000 803f 0000 803f
00000050: 0000 803f 0000 803f 0000 803f 0000 803f
00000060: 0000 803f 0000 803f 0000 803f 0000 803f
00000070: 0000 803f 0000 803f 0000 803f 0000 803f

decoder.0.bias f4 [32]
0.0 0.0 0.0 0.0 0.0 0.0 0.0 0.0
0.0 0.0 0.0 0.0 0.0 0.0 0.0 0.0
0.0 0.0 0.0 0.0 0.0 0.0 0.0 0.0
0.0 0.0 0.0 0.0 0.0 0.0 0.0 0.0
00000000: 0000 0000 0000 0000 0000 0000 0000 0000
00000010: 0000 0000 0000 0000 0000 0000 0000 0000
00000020: 0000 0000 0000 0000 0000 0000 0000 0000
00000030: 0000 0000 0000 0000 0000 0000 0000 0000
00000040: 0000 0000 0000 0000 0000 0000 0000 0000
00000050: 0000 0000 0000 0000 0000 0000 0000 0000
00000060: 0000 0000 0000 0000 0000 0000 0000 0000
00000070: 0000 0000 0000 0000 0000 0000 0000 0000

decoder.0.running_mean f4 [32]
0.0 0.0 0.0 0.0 0.0 0.0 0.0 0.0
0.0 0.0 0.0 0.0 0.0 0.0 0.0 0.0
0.0 0.0 0.0 0.0 0.0 0.0 0.0 0.0
0.0 0.0 0.0 0.0 0.0 0.0 0.0 0.0
00000000: 0000 0000 0000 0000 0000 0000 0000 0000
00000010: 0000 0000 0000 0000 0000 0000 0000 0000
00000020: 0000 0000 0000 0000 0000 0000 0000 0000
00000030: 0000 0000 0000 0000 0000 0000 0000 0000
00000040: 0000 0000 0000 0000 0000 0000 0000 0000
00000050: 0000 0000 0000 0000 0000 0000 0000 0000
00000060: 0000 0000 0000 0000 0000 0000 0000 0000
00000070: 0000 0000 0000 0000 0000 0000 0000 0000

decoder.0.running_var f4 [32]
1.0 1.0 1.0 1.0 1.0 1.0 1.0 1.0
1.0 1.0 1.0 1.0 1.0 1.0 1.0 1.0
1.0 1.0 1.0 1.0 1.0 1.0 1.0 1.0
1.0 1.0 1.0 1.0 1.0 1.0 1.0 1.0
00000000: 0000 803f 0000 803f 0000 803f 0000 803f
00000010: 0000 803f 0000 803f 0000 803f 0000 803f
00000020: 0000 803f 0000 803f 0000 803f 0000 803f
00000030: 0000 803f 0000 803f 0000 803f 0000 803f
00000040: 0000 803f 0000 803f 0000 803f 0000 803f
00000050: 0000 803f 0000 803f 0000 803f 0000 803f
00000060: 0000 803f 0000 803f 0000 803f 0000 803f
00000070: 0000 803f 0000 803f 0000 803f 0000 803f

decoder.1.weight f4 [32, 32, 1, 1]
-0.03608522 0.16586526 0.039323345 -0.10171387 -0.1671135 -0.161141 0.0038079023 0.08095007
-0.094306566 0.025006488 0.16897096 -0.13462587 -0.15286265 0.072797105 -0.058106825 -0.15565415
0.13216142 -0.16880706 0.11165978 -0.15379518 -0.09355121 0.14586492 0.0026462525 0.15675442
0.09348197 -0.09291928 -0.086160526 0.14039044 0.081497684 -0.08735765 -0.14904319 -0.06729063
0.087003365 -0.0626106 0.09776877 -0.020588517 0.1549447 0.14809464 0.0097153485 0.07724671
0.12879209 -0.112451054 -0.013410836 0.06357129 -0.1532525 -0.06601096 0.002805248 -0.06707041
0.10133983 0.09802584 -0.0017013699 0.1020643 0.12878202 -0.16297467 -0.093584485 0.07358365
0.10484396 -0.16685914 0.13684852 0.094114795 -0.12149583 -0.06910343 0.08019476 -0.15890245
0.031893104 -0.04101464 -0.12312506 0.16629286 -0.1313906 -0.07160391 0.027358651 0.11588602
-0.07653937 -0.0725928 0.092950806 0.06780319 -0.092064984 0.06907904 0.15170862 0.17324583
0.17110316 0.11646025 -0.020138338 -0.16828893 0.13424332 0.089153156 -0.020375118 0.07359736
0.052457765 -0.007835582 -0.06048353 -0.06432285 0.113404766 0.105275735 0.026494682 0.022589296
-0.14244305 -0.041299045 -0.042350814 0.12279786 0.1350004 0.15092786 -0.039081335 -0.16477261
0.1085491 0.06256457 0.014160261 -0.16899455 0.113847 -0.12729573 -0.16945277 -0.09709856
0.09725408 0.08887233 0.062904805 -0.14924456 -0.08703452 0.05687949 0.12375794 -0.06502022
-0.17392297 0.091653034 -0.09139139 -0.00202021 -0.12756987 -0.120064944 -0.03784378 0.034432843
0.106742784 -0.03504148 0.004280627 0.083737925 0.12141286 -0.16837099 -0.003039062 0.051683366
-0.08205422 -0.17068407 0.08038671 0.17085879 -0.11439323 -0.003881365 0.10965334 0.15598546
-0.13058959 -0.057934485 -0.076581515 0.09510256 0.15505458 -0.11933777 -0.09720835 -0.09749487
-0.1700471 -0.14608955 -0.050544858 -0.1476713 0.034423918 0.089765176 0.06427577 0.060588077
-0.1761074 -0.09665351 0.09224062 0.029238135 -0.1206664 -0.06751919 0.016434193 -0.096123554
0.11297633 -0.083771266 0.11103563 0.15141748 0.09820233 -0.06960619 0.10390405 -0.09182947
0.026798919 0.14090396 0.16429536 0.0016187727 -0.01923342 0.13181634 -0.07784399 0.06612617
-0.15595502 -0.04922782 0.06297313 0.022479773 0.08134253 0.04954928 0.006089017 -0.12646876
-0.1576914 0.12738837 -0.052335195 -0.05185879 0.1079133 0.16941635 0.028996676 -0.101117074
-0.05780813 0.08139573 0.08694787 0.10083301 -0.043171838 -0.14969115 0.06842904 0.14743184
-0.03632064 0.1149535 -0.12085659 0.05824475 0.088461146 0.11007069 -0.0117444545 -0.016804114
-0.044269547 0.04681255 0.08950178 -0.12289557 0.13904865 0.08159877 0.09904738 0.119545475
0.17209192 -0.16988567 0.1535139 -0.16650662 0.079964384 0.112823054 0.10843791 -0.068174616
-0.118347615 0.047494277 0.09254195 0.06521548 -0.15674354 0.070240825 -0.06336933 0.08587392
-0.061185166 -0.13340035 -0.0395215 0.05100338 -0.026506424 0.027810767 -0.14939286 0.03656757
0.04945402 -0.0045054555 0.12064092 -0.13507293 -0.10563532 0.118211046 0.1643375 0.13446952
00000000: 18ce 13bd 95d8 293e 8411 213d 5d4f d0bd
00000010: cd1f 2bbe 2502 25be 008e 793b 26c9 a53d
00000020: cd23 c1bd 68da cc3c b906 2d3e 5ddb 09be
00000030: 0788 1cbe a616 953d 6c01 6ebd cd63 1fbe
00000040: 5355 073e c2db 2cbe e2ad e43d 7c7c 1dbe
00000050: c797 bfbd 9d5d 153e c06c 2d3b 3b84 203e
00000060: 7a73 bf3d 774c bebd ee74 b0bd 83c2 0f3e
00000070: 42e8 a63d 91e8 b2bd c79e 18be abcf 89bd
00000080: d22e b23d fc39 80bd fe3a c83d 40a9 a8bc
00000090: d3a9 1e3e 1fa6 173e 202d 1f3c 8633 9e3d
000000a0: 13e2 033e bd4c e6bd 20b9 5bbc aa31 823d
000000b0: 39ee 1cbe c130 87bd 40d8 373b 365c 89bd
000000c0: 428b cf3d c6c1 c83d 8000 dfba 1607 d13d
000000d0: 6fdf 033e d5e2 26be 39a9 bfbd 06b3 963d
000000e0: 6eb8 d63d 1fdd 2abe 0522 0c3e 42bf c03d
000000f0: ced2 f8bd 1986 8dbd 263d a43d 53b7 22be
00000100: 58a2 023d f8fe 27bd fe28 fcbd ad48 2a3e
00000110: 428b 06be 12a5 92bd 401f e03c a655 ed3d
00000120: acc0 9cbd 89ab 94bd fe5c be3d 66dc 8a3d
00000130: 918c bcbd 5079 8d3d 8159 1b3e 5b67 313e
00000140: ab35 2f3e b682 ee3d 28f9 a4bc ef53 2cbe
00000150: 1577 093e ee95 b63d b8e9 a6bc 36ba 963d
00000160: f4dd 563d d060 00bc 94bd 77bd b3bb 83bd
00000170: c240 e83d ce9a d73d 600b d93c 300d b93c
00000180: 97dc 11be 3029 29bd 0c78 2dbd 727d fb3d
00000190: 8b3d 0a3e d58c 1a3e c013 20bd 27ba 28be
000001a0: fe4e de3d da21 803d 7000 683c e80c 2dbe
000001b0: 9e28 e93d d059 02be 0785 2dbe 9cdb c6bd
000001c0: 262d c73d b202 b63d 3cd4 803d 91d3 18be
000001d0: 283f b2bd 78fa 683d ce74 fd3d 5229 85bd
000001e0: dd18 32be 96b4 bb3d 692b bbbd 8065 04bb
000001f0: ada1 02be 9ce4 f5bd 1402 1bbd 7409 0d3d
00000200: f69b da3d a887 0fbd 8044 8c3b ca7e ab3d
00000210: 4ea7 f83d 7269 2cbe 002b 47bb f0b1 533d
00000220: 0b0c a8bd cec7 2ebe caa1 a43d 9bf5 2e3e
00000230: ff46 eabd 805e 7ebb ee91 e03d a7ba 1f3e
00000240: 47b9 05be b64c 6dbd c5d6 9cbd 22c5 c23d
00000250: a1c6 1e3e 5c67 f4bd 2c15 c7bd 64ab c7bd
00000260: d420 2ebe 8098 15be 2008 4fbd 2537 17be
00000270: 1800 0d3d ced6 b73d 04a3 833d 342b 783d
00000280: 8055 34be 47f2 c5bd a6e8 bc3d d084 ef3c
00000290: f21f f7bd 8047 8abd 00a1 863c 6ddc c4bd
000002a0: 2260 e73d 4590 abbd a666 e33d 2f0d 1b3e
000002b0: 4e1e c93d b18d 8ebd a6cb d43d 1711 bcbd
000002c0: 6889 db3c 2149 103e 0b3d 283e 002d d43a
000002d0: 688f 9dbc ddfa 063e ab6c 9fbd 286d 873d
000002e0: acb2 1fbe 1ca3 49bd 0ef8 803d 8027 b83c
000002f0: ea96 a63d 30f4 4a3d 6086 c73b 0781 01be
00000300: db79 21be 1972 023e 6e5d 56bd e269 54bd
00000310: a601 dd3d 7b7b 2d3e 708a ed3c 7816 cfbd
00000320: 38c8 6cbd ceb2 a63d ba11 b23d 8a81 ce3d
00000330: f4d4 30bd a348 19be 8624 8c3d 5ff8 163e
00000340: f4c4 14bd be6c eb3d a983 f7bd 0c92 6e3d
00000350: 1e2b b53d be6c e13d d06b 40bc c8a8 89bc
00000360: fc53 35bd 84be 3f3d b64c b73d acb0 fbbd
00000370: c562 0e3e 421d a73d 5ad9 ca3d 42d4 f43d
00000380: dd38 303e 82f6 2dbe bf32 1d3e b680 2abe
00000390: 5ec4 a33d c60f e73d b214 de3d 229f 8bbd
000003a0: 3c60 f2bd 5c89 423d a286 bd3d b28f 853d
000003b0: 6181 20be 6cda 8f3d c7c7 81bd aade af3d
000003c0: 4c9d 7abd 1a9a 08be 4ce1 21bd ece8 503d
000003d0: 0024 d9bc 68d3 e33c 71fa 18be e0c7 153d
000003e0: 4c90 4a3d 80a2 93bb 9612 f73d 8f50 0abe
000003f0: 5557 d8bd a218 f23d 1748 283e 61b2 093e

decoder.1.bias f4 [32]
0.0332679 0.058489293 0.134962 -0.0011661798 0.15166597 0.15126075 -0.0950356 0.14890675
-0.0034944415 -0.09629895 -0.008397162 0.06430419 -0.10000488 0.018555954 -0.13202131 0.01568082
-0.05335384 0.04040833 0.085289404 0.030251443 -0.056901067 -0.0019524693 0.14904739 0.04680781
-0.0047558695 -0.08458417 0.018130198 0.12597723 0.11764677 0.027295917 0.10004409 0.013978273
00000000: ec43 083d 7892 6f3d 7b33 0a3e 80da 98ba
00000010: 534e 1b3e 19e4 1a3e 06a2 c2bd 037b 183e
00000020: 0003 65bb 6238 c5bd 4094 09bc eab1 833d
00000030: 5ccf ccbd a802 983c 9830 07be 1075 803c
00000040: 8e89 5abd 3483 253d 36ac ae3d e0d1 f73c
00000050: 1811 69bd 00ea ffba e19f 183e 8cb9 3f3d
00000060: 20d7 9bbb 773a adbd c885 943c 2d00 013e
00000070: caf0 f03d b09b df3c eae3 cc3d 2005 653c

decoder.4.weight f4 [32]
1.0 1.0 1.0 1.0 1.0 1.0 1.0 1.0
1.0 1.0 1.0 1.0 1.0 1.0 1.0 1.0
1.0 1.0 1.0 1.0 1.0 1.0 1.0 1.0
1.0 1.0 1.0 1.0 1.0 1.0 1.0 1.0
00000000: 0000 803f 0000 803f 0000 803f 0000 803f
00000010: 0000 803f 0000 803f 0000 803f 0000 803f
00000020: 0000 803f 0000 803f 0000 803f 0000 803f
00000030: 0000 803f 0000 803f 0000 803f 0000 803f
00000040: 0000 803f 0000 803f 0000 803f 0000 803f
00000050: 0000 803f 0000 803f 0000 803f 0000 803f
00000060: 0000 803f 0000 803f 0000 803f 0000 803f
00000070: 0000 803f 0000 803f 0000 803f 0000 803f

decoder.4.bias f4 [32]
0.0 0.0 0.0 0.0 0.0 0.0 0.0 0.0
0.0 0.0 0.0 0.0 0.0 0.0 0.0 0.0
0.0 0.0 0.0 0.0 0.0 0.0 0.0 0.0
0.0 0.0 0.0 0.0 0.0 0.0 0.0 0.0
00000000: 0000 0000 0000 0000 0000 0000 0000 0000
00000010: 0000 0000 0000 0000 0000 0000 0000 0000
00000020: 0000 0000 0000 0000 0000 0000 0000 0000
00000030: 0000 0000 0000 0000 0000 0000 0000 0000
00000040: 0000 0000 0000 0000 0000 0000 0000 0000
00000050: 0000 0000 0000 0000 0000 0000 0000 0000
00000060: 0000 0000 0000 0000 0000 0000 0000 0000
00000070: 0000 0000 0000 0000 0000 0000 0000 0000

decoder.4.running_mean f4 [32]
0.0 0.0 0.0 0.0 0.0 0.0 0.0 0.0
0.0 0.0 0.0 0.0 0.0 0.0 0.0 0.0
0.0 0.0 0.0 0.0 0.0 0.0 0.0 0.0
0.0 0.0 0.0 0.0 0.0 0.0 0.0 0.0
00000000: 0000 0000 0000 0000 0000 0000 0000 0000
00000010: 0000 0000 0000 0000 0000 0000 0000 0000
00000020: 0000 0000 0000 0000 0000 0000 0000 0000
00000030: 0000 0000 0000 0000 0000 0000 0000 0000
00000040: 0000 0000 0000 0000 0000 0000 0000 0000
00000050: 0000 0000 0000 0000 0000 0000 0000 0000
00000060: 0000 0000 0000 0000 0000 0000 0000 0000
00000070: 0000 0000 0000 0000 0000 0000 0000 0000

decoder.4.running_var f4 [32]
1.0 1.0 1.0 1.0 1.0 1.0 1.0 1.0
1.0 1.0 1.0 1.0 1.0 1.0 1.0 1.0
1.0 1.0 1.0 1.0 1.0 1.0 1.0 1.0
1.0 1.0 1.0 1.0 1.0 1.0 1.0 1.0
00000000: 0000 803f 0000 803f 0000 803f 0000 803f
00000010: 0000 803f 0000 803f 0000 803f 0000 803f
00000020: 0000 803f 0000 803f 0000 803f 0000 803f
00000030: 0000 803f 0000 803f 0000 803f 0000 803f
00000040: 0000 803f 0000 803f 0000 803f 0000 803f
00000050: 0000 803f 0000 803f 0000 803f 0000 803f
00000060: 0000 803f 0000 803f 0000 803f 0000 803f
00000070: 0000 803f 0000 803f 0000 803f 0000 803f

decoder.5.weight f4 [16, 32, 1, 1]
-0.11426396 -0.10420376 0.08962549 0.026524574 -0.07659256 -0.061795563 0.07370095 -0.16500914
-0.015804484 0.03519106 0.07135038 -0.11556093 0.04326102 0.1667188 0.12376116 0.09974603
0.15197124 -0.16048977 -0.09062836 0.0489811 -0.16106032 -0.15035778 0.120014444 -0.0926798
0.0320296 0.16530399 -0.00035327673 0.020776689 -0.1279442 0.119963095 0.050053686 -0.13430999
0.08795549 0.13157643 -0.13560578 0.119786754 0.17665552 0.13605846 0.07775949 0.05604738
-0.11604254 -0.14134464 -0.14833388 -0.15102609 0.17421527 0.16189389 -0.15063842 0.118969366
0.10044314 0.10682072 -0.04667127 0.0013044626 -0.11658214 0.01975292 0.0980577 0.12865491
-0.027495384 -0.01735358 -0.059638314 -0.08855914 0.10159002 0.15848021 -0.07069379 -0.14051476
-0.07342208 0.16981752 -0.051123306 -0.04586956 0.036312625 -0.09994006 -0.10375962 -0.055997886
-0.034175158 -0.122797415 0.0666607 0.04592675 -0.112558655 -0.17129554 -0.001681149 0.1664121
-0.05810885 -0.16179056 0.021277726 0.057366237 -0.074572735 -0.044321567 -0.16543822 -0.11180467
0.005721554 -0.033914387 0.15402766 0.1404201 0.06767064 -0.11857832 0.060296714 -0.035362303
0.10964833 -0.17092437 -0.17358497 0.14505412 0.053184897 0.013960749 0.041134253 0.117057964
0.10007654 0.13867964 -0.13543169 -0.11758366 -0.1583445 0.033289924 0.055981323 -0.15029705
0.13052528 0.065572545 -0.15165174 0.09591566 -0.1644492 0.035636887 0.05495648 0.051101655
0.04673867 -0.110329784 0.13246144 -0.06393645 0.078049615 -0.13660094 0.0062647015 -0.064908296
0.16666953 0.12106313 -0.11833952 0.09170149 0.1390916 -0.14642096 0.03917879 -0.10904644
0.15003191 0.1123686 0.13496844 -0.15055372 0.13004963 0.11170666 -0.038579658 -0.030857861
-0.010096386 -0.16018783 -0.118543 -0.1500188 0.014142081 -0.075194634 -0.051924877 -0.15770078
0.10385619 0.12910356 0.078049645 -0.13053599 0.06362617 0.12731056 0.15151905 0.11071609
0.03667216 0.13732325 0.12587626 -0.14546491 0.16514511 -0.11204129 -0.050555065 -0.12483342
0.1569099 -0.16696867 -0.13126081 -0.12973809 -0.16274975 0.10015474 -0.08631394 0.02122657
-0.15787955 0.15720047 0.09973775 -0.04281147 -0.14916475 0.05252841 -0.01799266 0.056169778
0.06250125 0.1273957 -0.013191104 -0.102103814 0.16205274 -0.028563514 0.078108445 0.110929415
-0.04069124 -0.0591233 -0.10201158 0.14322294 0.14060558 -0.10901737 -0.08543579 -0.13886526
0.13182618 0.14130493 -0.14193705 0.12196536 -0.05855742 0.095821574 0.047219664 -0.12867989
-0.17442627 0.17641734 0.14172266 0.16534464 -0.07787138 -0.061876483 0.05320236 0.15268983
0.09317504 0.005259648 -0.12999643 -0.09922232 0.05511929 -0.095724955 0.09192528 0.1271234
-0.041156918 -0.07433189 -0.09137361 0.10179846 -0.12770039 -0.169352 -0.011830121 -0.08453372
-0.050169185 0.06796363 -0.15144193 -0.16744095 0.13412048 0.009556353 -0.07540111 -0.0024515092
0.15359156 -0.019803166 -0.12175009 -0.017188475 -0.027911648 -0.15366696 -0.16840595 -0.1269552
0.13374014 0.09764458 0.058765516 -0.113000356 -0.00030231476 0.098964915 -0.0778926 0.046687767
00000000: 3903 eabd c868 d5bd 928d b73d 104a d93c
00000010: 8fdc 9cbd 581d 7dbd 86f0 963d 28f8 28be
00000020: 6878 81bc 8024 103d 2620 923d 35ab ecbd
00000030: 7832 313d 55b8 2a3e 7e76 fd3d a647 cc3d
00000040: 599e 1b3e 6e57 24be 5d9b b9bd 68a0 483d
00000050: ffec 24be 64f7 19be 22ca f53d e8ce bdbd
00000060: 7831 033d 7345 293e 0038 b9b9 e033 aa3c
00000070: ce03 03be 36af f53d 1805 4d3d 8f88 09be
00000080: 0222 b43d f9bb 063e 3edc 0abe c252 f53d
00000090: 2fe5 343e e952 0b3e 5e40 9f3d f091 653d
000000a0: b6a7 edbd a6bc 10be d6e4 17be 95a6 1abe
000000b0: 7d65 323e 83c7 253e f540 1abe 36a6 f33d
000000c0: 22b5 cd3d d2c4 da3d 602a 3fbd 80fa aa3a
000000d0: 9ec2 eebd e0d0 a13c 7ad2 c83d 1dbe 033e
000000e0: 003e e1bc 1829 8ebc 4e47 74bd 7f5e b5bd
000000f0: 6e0e d03d a348 223e e8c7 90bd 1ae3 0fbe
00000100: 515e 96bd a5e4 2d3e ac66 51bd b8e1 3bbd
00000110: 8cbc 143d 60ad ccbd ec7f d4bd 0a5e 65bd
00000120: 40fb 0bbd 367d fbbd 6885 883d b01d 3c3d
00000130: 2785 e6bd 1968 2fbe 005a dcba ef67 2a3e
00000140: 8c03 6ebd 6dac 25be a04e ae3c dcf8 6a3d
00000150: 97b9 98bd 888a 35bd a368 29be d9f9 e4bd
00000160: e07b bb3b d0e9 0abd 6db9 1d3e 49ca 0f3e
00000170: e896 8a3d 31d9 f2bd b0f9 763d 10d8 10bd
00000180: 4e8f e03d cc06 2fbe 42c0 31be 1189 143e
00000190: 68d8 593d a0bb 643c 647c 283d 16bc ef3d
000001a0: eef4 cc3d 0902 0e3e 9bae 0abe b4cf f0bd
000001b0: 1025 22be 045b 083d ac4c 653d 78e7 19be
000001c0: 6ba8 053e e64a 863d 984a 1bbe 6e6f c43d
000001d0: 5f65 28be fcf7 113d 0c1a 613d f84f 513d
000001e0: 0c71 3f3d 95f4 e1bd f9a3 073e 1df1 82bd
000001f0: 7ad8 9f3d 1ee1 0bbe 2048 cd3b a4ee 84bd
00000200: 6bab 2a3e f2ef f73d fe5b f2bd fecd bb3d
00000210: 076e 0e3e 60ef 15be f079 203d bd53 dfbd
00000220: f7a1 193e 8221 e63d 2b35 0a3e c12a 1abe
00000230: bb2b 053e 76c6 e43d b405 1ebd a0c9 fcbc
00000240: 506b 25bc 4708 24be acc6 f2bd 879e 19be
00000250: 30b4 673c a5ff 99bd 2eaf 54bd 507c 21be
00000260: 8eb2 d43d b933 043e 7ed8 9f3d 3aab 05be
00000270: 704e 823d b35d 023e cf27 1b3e 1ebf e23d
00000280: 8c35 163d 779e 0c3e b5e5 003e c1f4 14be
00000290: cd1b 293e e775 e5bd d412 4fbd aaa8 ffbd
000002a0: fdac 203e d6f9 2abe 3c69 06be 10da 04be
000002b0: dfa7 26be ee1d cd3d 5dc5 b0bd 58e3 ad3c
000002c0: 2dab 21be 29f9 203e 4e43 cc3d 145b 2fbd
000002d0: a5be 18be 0828 573d 5865 93bc 4812 663d
000002e0: a800 803d 0574 023e 801f 58bc ce1b d1bd
000002f0: 27f1 253e 08fe e9bc 52f7 9f3d f62e e33d
00000300: dcab 26bd 462b 72bd 72eb d0bd 09a9 123e
00000310: e9fa 0f3e 8044 dfbd f6f8 aebd b232 0ebe
00000320: 71fd 063e 3db2 103e f257 11be fac8 f93d
00000330: e8d9 6fbd 1a3e c43d 6869 413d a9c4 03be
00000340: cd9c 32be bfa6 343e bf1f 113e 1b50 293e
00000350: 087b 9fbd 3272 7dbd b8ea 593d b95a 1c3e
00000360: 8ed2 be3d 2059 ac3b c91d 05be 1235 cbbd
00000370: c4c4 613d 720b c4bd 5243 bc3d a32c 023e
00000380: 2894 28bd 513b 98bd 1622 bbbd b67b d03d
00000390: e4c3 02be 9c6a 2dbe 20d3 41bc 0420 adbd
000003a0: 347e 4dbd 8430 8b3d 9813 1bbe a475 2bbe
000003b0: e156 093e 4092 1c3c e66b 9abd 80a9 20bb
000003c0: 1b47 1d3e 403a a2bc 1c58 f9bd d8ce 8cbc
000003d0: f8a6 e4bc df5a 1dbe 9c72 2cbe 8b00 02be
000003e0: 2df3 083e e2f9 c73d 1cb4 703d bb6c e7bd
000003f0: 0080 9eb9 1eae ca3d 2886 9fbd ac3b 3f3d

decoder.5.bias f4 [16]
0.13942705 -0.13658023 0.1714585 -0.045945585 0.10438414 0.0050526857 0.15167476 0.10212986
-0.11188256 -0.12778915 -0.08658874 -0.00722903 -0.048346937 0.12581818 0.07372786 -0.051692456
00000000: f7c5 0e3e b0db 0bbe d192 2f3e 7031 3cbd
00000010: 5ac7 d53d 0091 a53b a150 1b3e 7629 d13d
00000020: af22 e5bd 29db 02be 7055 b1bd 80e1 ecbb
00000030: 7007 46bd 7bd6 003e a2fe 963d 78bb 53bd

decoder.8.weight f4 [16]
1.0 1.0 1.0 1.0 1.0 1.0 1.0 1.0
1.0 1.0 1.0 1.0 1.0 1.0 1.0 1.0
00000000: 0000 803f 0000 803f 0000 803f 0000 803f
00000010: 0000 803f 0000 803f 0000 803f 0000 803f
00000020: 0000 803f 0000 803f 0000 803f 0000 803f
00000030: 0000 803f 0000 803f 0000 803f 0000 803f

decoder.8.bias f4 [16]
0.0 0.0 0.0 0.0 0.0 0.0 0.0 0.0
0.0 0.0 0.0 0.0 0.0 0.0 0.0 0.0
00000000: 0000 0000 0000 0000 0000 0000 0000 0000
00000010: 0000 0000 0000 0000 0000 0000 0000 0000
00000020: 0000 0000 0000 0000 0000 0000 0000 0000
00000030: 0000 0000 0000 0000 0000 0000 0000 0000

decoder.8.running_mean f4 [16]
0.0 0.0 0.0 0.0 0.0 0.0 0.0 0.0
0.0 0.0 0.0 0.0 0.0 0.0 0.0 0.0
00000000: 0000 0000 0000 0000 0000 0000 0000 0000
00000010: 0000 0000 0000 0000 0000 0000 0000 0000
00000020: 0000 0000 0000 0000 0000 0000 0000 0000
00000030: 0000 0000 0000 0000 0000 0000 0000 0000

decoder.8.running_var f4 [16]
1.0 1.0 1.0 1.0 1.0 1.0 1.0 1.0
1.0 1.0 1.0 1.0 1.0 1.0 1.0 1.0
00000000: 0000 803f 0000 803f 0000 803f 0000 803f
00000010: 0000 803f 0000 803f 0000 803f 0000 803f
00000020: 0000 803f 0000 803f 0000 803f 0000 803f
00000030: 0000 803f 0000 803f 0000 803f 0000 803f

decoder.9.weight f4 [11, 16, 1, 1]
-0.040614516 0.08276382 0.1307162 0.0604724 -0.034992576 -0.069990665 -0.07533747 -0.24358273
-0.03646925 -0.05993572 0.14254504 -0.12017608 0.16129622 -0.114237785 -0.07875997 -0.03630513
-0.22959375 -0.021917373 -0.16938436 -0.09326187 0.022239357 -0.13800311 0.23387924 -0.18186918
0.019428968 -0.2000764 0.0499478 -0.08950856 -0.06218064 0.020170122 -0.110406846 -0.18271455
-0.24083528 0.19460857 0.088517845 0.22606248 0.21970347 -0.23474324 -0.17024526 0.06178114
0.050166786 0.06554079 -0.07191554 0.065709084 0.011564016 0.06967029 0.24621269 0.14590779
0.211196 -0.20423341 0.018461257 0.01965952 0.22803941 -0.13995498 -0.07040146 0.17044407
0.01786381 -0.046997696 0.14518243 -0.040109634 -0.23184538 -0.012306511 -0.05601293 0.18172264
0.049706727 0.23987654 -0.007227391 0.0066848695 -0.2388438 -0.20671004 -0.11839044 -0.17902768
-0.037808567 -0.013869673 -0.12621406 0.16443276 0.19473717 -0.21220762 0.24702528 -0.17682338
0.006502986 0.14695454 -0.071041465 -0.102318764 -0.01987639 -0.02011922 0.10147205 0.14709824
0.24532041 0.16590205 0.15779695 -0.13036394 -0.14046761 -0.22560969 0.11344117 -0.10063833
0.24907678 0.14157096 0.019723386 0.108388394 -0.24215606 -0.120073766 -0.08223033 0.2447004
-0.16678146 0.2343595 -0.19317493 0.09566417 -0.1996566 0.004135132 0.002041489 -0.1852389
0.14097583 -0.10032436 0.12593764 -0.13648385 -0.0053963363 -0.03147453 -0.16056779 -0.24788418
-0.17531517 -0.19273245 0.08664876 -0.21767777 -0.023955852 0.014253974 0.07300547 0.03433475
-0.115329504 -0.05042121 -0.17212403 -0.17123497 0.21221325 0.24533066 -0.11528975 0.003575325
-0.24549931 -0.10198295 -0.018661082 0.2316809 -0.12605622 0.043644607 0.06737745 -0.08603302
0.005069375 0.12815517 0.21693337 0.22392243 0.14093706 0.21508697 0.0239698 -0.16026819
0.044561803 -0.0488874 0.21744105 -0.2064592 0.050442606 0.05956459 0.010786086 -0.1261186
0.23198873 0.1824646 -0.23754448 -0.119576424 0.17641434 0.09122619 -0.17204764 -0.0606924
0.20720568 -0.23927683 -0.006956756 -0.009560108 -0.14816222 -0.14715567 0.057985485 -0.19025019
00000000: 685b 26bd 1480 a93d 78da 053e e8b1 773d
00000010: 6054 0fbd 4457 8fbd 884a 9abd c06d 79be
00000020: c860 15bd 287f 75bd 54f7 113e e01e f6bd
00000030: d62a 253e 80f5 e9bd e84c a1bd b0b4 14bd
00000040: a01a 6bbe 108c b3bc 1873 2dbe 1400 bfbd
00000050: 502f b63c b050 0dbe 0a7e 6f3e ea3b 3abe
00000060: 8029 9f3c d4e0 4cbe 1096 4c3d 4450 b7bd
00000070: 20b1 7ebd d03b a53c fc1c e2bd 8619 3bbe
00000080: 869d 76be 7847 473e d848 b53d ec7c 673e
00000090: f2f9 603e 8860 70be c654 2ebe 380e 7d3d
000000a0: b07b 4d3d 403a 863d 7448 93bd 7c92 863d
000000b0: 0077 3d3c 4caf 8e3d 2e1f 7c3e da68 153e
000000c0: c443 583e 9022 51be 103c 973c 000d a13c
000000d0: 2a83 693e 5c50 0fbe a42e 90bd e488 2e3e
000000e0: 2057 923c a880 40bd b4aa 143e 004a 24bd
000000f0: e068 6dbe 40a1 49bc d06d 65bd 8015 3a3e
00000100: 4899 4b3d 32a2 753e c0d3 ecbb c00c db3b
00000110: 7893 74be ccab 53be b076 f2bd 0853 37be
00000120: 28dd 1abd a03d 63bc 423e 01be 1061 283e
00000130: 2e69 473e f44c 59be 32f4 7c3e 3011 35be
00000140: 0017 d53b 407b 163e 307e 91bd 808c d1bd
00000150: d0d3 a2bc 10d1 a4bc 94d0 cf3d eca0 163e
00000160: 4635 7b3e 3ae2 293e 8695 213e 207e 05be
00000170: bed6 0fbe 3a06 67be d853 e83d 781b cebd
00000180: fc0d 7f3e faf7 103e f092 a13c bcfa dd3d
00000190: c2f7 77be 3ce9 f5bd 6068 a8bd be92 7a3e
000001a0: c2c8 2abe f0fb 6f3e a6cf 45be 94eb c33d
000001b0: c872 4cbe 0080 873b 80ca 053b 44af 3dbe
000001c0: f85b 103e dc76 cdbd ccf5 003e 6cc2 0bbe
000001d0: c0d3 b0bb 70eb 00bd e26b 24be 5ad5 7dbe
000001e0: d285 33be a85b 45be e874 b13d ece6 5ebe
000001f0: 103f c4bc 8089 693c e483 953d 98a2 0c3d
00000200: e031 ecbd 7886 4ebd 4841 30be 3858 2fbe
00000210: 6e4e 593e f637 7b3e 081d ecbd 0050 6a3b
00000220: 2c64 7bbe 70dc d0bd 20df 98bc c23d 6d3e
00000230: e214 01be b0c4 323d 30fd 893d 1432 b0bd
00000240: 001d a63b 1c3b 033e c823 5e3e ec4b 653e
00000250: ce51 103e c23f 5c3e 505c c43c 581d 24be
00000260: 7086 363d 283e 48bd dea8 5e3e 0a6a 53be
00000270: e89c 4e3d 00fa 733d 20b8 303c 3c25 01be
00000280: 748e 6d3e 00d8 3a3e dc3e 73be 7ce4 f4bd
00000290: f6a5 343e ccd4 ba3d 422d 30be 9898 78bd
000002a0: ba2d 543e fc04 75be 80f5 e3bb 00a2 1cbc
000002b0: d6b7 17be faaf 16be 3082 6d3d f2d0 42be

decoder.9.bias f4 [11]
-0.24888402 -0.018397808 0.1126017 -0.14258423 0.19057381 -0.18929163 -0.012008071 0.24795327
-0.028162599 0.1177375 -0.13391203
00000000: 74db 7ebe 00b7 96bc b89b e63d 9a01 12be
00000010: c825 433e aad5 41be 80bd 44bc 76e7 7d3e
00000020: 40b5 e6bc 5c20 f13d 3c20 09be
